name: "ResNet-50_coco_DSSD_513x513_train"
layer {
  name: "data"
  type: "AnnotatedData"
  top: "data"
  top: "label"
  include {
    phase: TRAIN
  }
  transform_param {
    mirror: true
    mean_value: 104
    mean_value: 117
    mean_value: 123
    force_color: true
    resize_param {
      prob: 1
      resize_mode: WARP
      height: 513
      width: 513
      interp_mode: LINEAR
      interp_mode: AREA
      interp_mode: NEAREST
      interp_mode: CUBIC
      interp_mode: LANCZOS4
    }
    emit_constraint {
      emit_type: CENTER
    }
    distort_param {
      brightness_prob: 0.5
      brightness_delta: 32
      contrast_prob: 0.5
      contrast_lower: 0.5
      contrast_upper: 1.5
      hue_prob: 0.5
      hue_delta: 18
      saturation_prob: 0.5
      saturation_lower: 0.5
      saturation_upper: 1.5
      random_order_prob: 0.0
    }
    expand_param {
      prob: 0.5
      max_expand_ratio: 4.0
    }
  }
  data_param {
    source: "examples/coco/coco_train_lmdb"
    batch_size: 1
    backend: LMDB
  }
  annotated_data_param {
    batch_sampler {
      max_sample: 1
      max_trials: 1
    }
    batch_sampler {
      sampler {
        min_scale: 0.3
        max_scale: 1.0
        min_aspect_ratio: 0.5
        max_aspect_ratio: 2.0
      }
      sample_constraint {
        min_jaccard_overlap: 0.1
      }
      max_sample: 1
      max_trials: 50
    }
    batch_sampler {
      sampler {
        min_scale: 0.3
        max_scale: 1.0
        min_aspect_ratio: 0.5
        max_aspect_ratio: 2.0
      }
      sample_constraint {
        min_jaccard_overlap: 0.3
      }
      max_sample: 1
      max_trials: 50
    }
    batch_sampler {
      sampler {
        min_scale: 0.3
        max_scale: 1.0
        min_aspect_ratio: 0.5
        max_aspect_ratio: 2.0
      }
      sample_constraint {
        min_jaccard_overlap: 0.5
      }
      max_sample: 1
      max_trials: 50
    }
    batch_sampler {
      sampler {
        min_scale: 0.3
        max_scale: 1.0
        min_aspect_ratio: 0.5
        max_aspect_ratio: 2.0
      }
      sample_constraint {
        min_jaccard_overlap: 0.7
      }
      max_sample: 1
      max_trials: 50
    }
    batch_sampler {
      sampler {
        min_scale: 0.3
        max_scale: 1.0
        min_aspect_ratio: 0.5
        max_aspect_ratio: 2.0
      }
      sample_constraint {
        min_jaccard_overlap: 0.9
      }
      max_sample: 1
      max_trials: 50
    }
    batch_sampler {
      sampler {
        min_scale: 0.3
        max_scale: 1.0
        min_aspect_ratio: 0.5
        max_aspect_ratio: 2.0
      }
      sample_constraint {
        max_jaccard_overlap: 1.0
      }
      max_sample: 1
      max_trials: 50
    }
    label_map_file: "data/coco/labelmap_coco.prototxt"
  }
}
layer {
  name: "conv1"
  type: "Convolution"
  bottom: "data"
  top: "conv1"
  param {
    lr_mult: 1
    decay_mult: 1
  }
  convolution_param {
    num_output: 64
    bias_term: true
    pad: 3
    kernel_size: 7
    stride: 2
    weight_filler {
      type: "gaussian"
      std: 0.01
    }
  }
}
layer {
  name: "bn_conv1"
  type: "BatchNorm"
  bottom: "conv1"
  top: "conv1"
  param {
    lr_mult: 0
    decay_mult: 0
  }
  param {
    lr_mult: 0
    decay_mult: 0
  }
  param {
    lr_mult: 0
    decay_mult: 0
  }
  batch_norm_param {
    use_global_stats: true
    eps: 0.001
  }
}
layer {
  name: "scale_conv1"
  type: "Scale"
  bottom: "conv1"
  top: "conv1"
  param {
    lr_mult: 0
    decay_mult: 0
  }
  param {
    lr_mult: 0
    decay_mult: 0
  }
  scale_param {
    filler {
      type: "constant"
      value: 1.0
    }
    bias_term: true
    bias_filler {
      type: "constant"
      value: 0.0
    }
  }
}
layer {
  name: "conv1_relu"
  type: "ReLU"
  bottom: "conv1"
  top: "conv1"
}
layer {
  name: "pool1"
  type: "Pooling"
  bottom: "conv1"
  top: "pool1"
  pooling_param {
    pool: MAX
    kernel_size: 3
    stride: 2
  }
}
layer {
  name: "res2a_branch1"
  type: "Convolution"
  bottom: "pool1"
  top: "res2a_branch1"
  param {
    lr_mult: 1
    decay_mult: 1
  }
  convolution_param {
    num_output: 256
    bias_term: false
    pad: 0
    kernel_size: 1
    stride: 1
    weight_filler {
      type: "gaussian"
      std: 0.01
    }
  }
}
layer {
  name: "bn2a_branch1"
  type: "BatchNorm"
  bottom: "res2a_branch1"
  top: "res2a_branch1"
  param {
    lr_mult: 0
    decay_mult: 0
  }
  param {
    lr_mult: 0
    decay_mult: 0
  }
  param {
    lr_mult: 0
    decay_mult: 0
  }
  batch_norm_param {
    use_global_stats: true
    eps: 0.001
  }
}
layer {
  name: "scale2a_branch1"
  type: "Scale"
  bottom: "res2a_branch1"
  top: "res2a_branch1"
  param {
    lr_mult: 0
    decay_mult: 0
  }
  param {
    lr_mult: 0
    decay_mult: 0
  }
  scale_param {
    filler {
      type: "constant"
      value: 1.0
    }
    bias_term: true
    bias_filler {
      type: "constant"
      value: 0.0
    }
  }
}
layer {
  name: "res2a_branch2a"
  type: "Convolution"
  bottom: "pool1"
  top: "res2a_branch2a"
  param {
    lr_mult: 1
    decay_mult: 1
  }
  convolution_param {
    num_output: 64
    bias_term: false
    pad: 0
    kernel_size: 1
    stride: 1
    weight_filler {
      type: "gaussian"
      std: 0.01
    }
  }
}
layer {
  name: "bn2a_branch2a"
  type: "BatchNorm"
  bottom: "res2a_branch2a"
  top: "res2a_branch2a"
  param {
    lr_mult: 0
    decay_mult: 0
  }
  param {
    lr_mult: 0
    decay_mult: 0
  }
  param {
    lr_mult: 0
    decay_mult: 0
  }
  batch_norm_param {
    use_global_stats: true
    eps: 0.001
  }
}
layer {
  name: "scale2a_branch2a"
  type: "Scale"
  bottom: "res2a_branch2a"
  top: "res2a_branch2a"
  param {
    lr_mult: 0
    decay_mult: 0
  }
  param {
    lr_mult: 0
    decay_mult: 0
  }
  scale_param {
    filler {
      type: "constant"
      value: 1.0
    }
    bias_term: true
    bias_filler {
      type: "constant"
      value: 0.0
    }
  }
}
layer {
  name: "res2a_branch2a_relu"
  type: "ReLU"
  bottom: "res2a_branch2a"
  top: "res2a_branch2a"
}
layer {
  name: "res2a_branch2b"
  type: "Convolution"
  bottom: "res2a_branch2a"
  top: "res2a_branch2b"
  param {
    lr_mult: 1
    decay_mult: 1
  }
  convolution_param {
    num_output: 64
    bias_term: false
    pad: 1
    kernel_size: 3
    stride: 1
    weight_filler {
      type: "gaussian"
      std: 0.01
    }
  }
}
layer {
  name: "bn2a_branch2b"
  type: "BatchNorm"
  bottom: "res2a_branch2b"
  top: "res2a_branch2b"
  param {
    lr_mult: 0
    decay_mult: 0
  }
  param {
    lr_mult: 0
    decay_mult: 0
  }
  param {
    lr_mult: 0
    decay_mult: 0
  }
  batch_norm_param {
    use_global_stats: true
    eps: 0.001
  }
}
layer {
  name: "scale2a_branch2b"
  type: "Scale"
  bottom: "res2a_branch2b"
  top: "res2a_branch2b"
  param {
    lr_mult: 0
    decay_mult: 0
  }
  param {
    lr_mult: 0
    decay_mult: 0
  }
  scale_param {
    filler {
      type: "constant"
      value: 1.0
    }
    bias_term: true
    bias_filler {
      type: "constant"
      value: 0.0
    }
  }
}
layer {
  name: "res2a_branch2b_relu"
  type: "ReLU"
  bottom: "res2a_branch2b"
  top: "res2a_branch2b"
}
layer {
  name: "res2a_branch2c"
  type: "Convolution"
  bottom: "res2a_branch2b"
  top: "res2a_branch2c"
  param {
    lr_mult: 1
    decay_mult: 1
  }
  convolution_param {
    num_output: 256
    bias_term: false
    pad: 0
    kernel_size: 1
    stride: 1
    weight_filler {
      type: "gaussian"
      std: 0.01
    }
  }
}
layer {
  name: "bn2a_branch2c"
  type: "BatchNorm"
  bottom: "res2a_branch2c"
  top: "res2a_branch2c"
  param {
    lr_mult: 0
    decay_mult: 0
  }
  param {
    lr_mult: 0
    decay_mult: 0
  }
  param {
    lr_mult: 0
    decay_mult: 0
  }
  batch_norm_param {
    use_global_stats: true
    eps: 0.001
  }
}
layer {
  name: "scale2a_branch2c"
  type: "Scale"
  bottom: "res2a_branch2c"
  top: "res2a_branch2c"
  param {
    lr_mult: 0
    decay_mult: 0
  }
  param {
    lr_mult: 0
    decay_mult: 0
  }
  scale_param {
    filler {
      type: "constant"
      value: 1.0
    }
    bias_term: true
    bias_filler {
      type: "constant"
      value: 0.0
    }
  }
}
layer {
  name: "res2a"
  type: "Eltwise"
  bottom: "res2a_branch1"
  bottom: "res2a_branch2c"
  top: "res2a"
}
layer {
  name: "res2a_relu"
  type: "ReLU"
  bottom: "res2a"
  top: "res2a"
}
layer {
  name: "res2b_branch2a"
  type: "Convolution"
  bottom: "res2a"
  top: "res2b_branch2a"
  param {
    lr_mult: 1
    decay_mult: 1
  }
  convolution_param {
    num_output: 64
    bias_term: false
    pad: 0
    kernel_size: 1
    stride: 1
    weight_filler {
      type: "gaussian"
      std: 0.01
    }
  }
}
layer {
  name: "bn2b_branch2a"
  type: "BatchNorm"
  bottom: "res2b_branch2a"
  top: "res2b_branch2a"
  param {
    lr_mult: 0
    decay_mult: 0
  }
  param {
    lr_mult: 0
    decay_mult: 0
  }
  param {
    lr_mult: 0
    decay_mult: 0
  }
  batch_norm_param {
    use_global_stats: true
    eps: 0.001
  }
}
layer {
  name: "scale2b_branch2a"
  type: "Scale"
  bottom: "res2b_branch2a"
  top: "res2b_branch2a"
  param {
    lr_mult: 0
    decay_mult: 0
  }
  param {
    lr_mult: 0
    decay_mult: 0
  }
  scale_param {
    filler {
      type: "constant"
      value: 1.0
    }
    bias_term: true
    bias_filler {
      type: "constant"
      value: 0.0
    }
  }
}
layer {
  name: "res2b_branch2a_relu"
  type: "ReLU"
  bottom: "res2b_branch2a"
  top: "res2b_branch2a"
}
layer {
  name: "res2b_branch2b"
  type: "Convolution"
  bottom: "res2b_branch2a"
  top: "res2b_branch2b"
  param {
    lr_mult: 1
    decay_mult: 1
  }
  convolution_param {
    num_output: 64
    bias_term: false
    pad: 1
    kernel_size: 3
    stride: 1
    weight_filler {
      type: "gaussian"
      std: 0.01
    }
  }
}
layer {
  name: "bn2b_branch2b"
  type: "BatchNorm"
  bottom: "res2b_branch2b"
  top: "res2b_branch2b"
  param {
    lr_mult: 0
    decay_mult: 0
  }
  param {
    lr_mult: 0
    decay_mult: 0
  }
  param {
    lr_mult: 0
    decay_mult: 0
  }
  batch_norm_param {
    use_global_stats: true
    eps: 0.001
  }
}
layer {
  name: "scale2b_branch2b"
  type: "Scale"
  bottom: "res2b_branch2b"
  top: "res2b_branch2b"
  param {
    lr_mult: 0
    decay_mult: 0
  }
  param {
    lr_mult: 0
    decay_mult: 0
  }
  scale_param {
    filler {
      type: "constant"
      value: 1.0
    }
    bias_term: true
    bias_filler {
      type: "constant"
      value: 0.0
    }
  }
}
layer {
  name: "res2b_branch2b_relu"
  type: "ReLU"
  bottom: "res2b_branch2b"
  top: "res2b_branch2b"
}
layer {
  name: "res2b_branch2c"
  type: "Convolution"
  bottom: "res2b_branch2b"
  top: "res2b_branch2c"
  param {
    lr_mult: 1
    decay_mult: 1
  }
  convolution_param {
    num_output: 256
    bias_term: false
    pad: 0
    kernel_size: 1
    stride: 1
    weight_filler {
      type: "gaussian"
      std: 0.01
    }
  }
}
layer {
  name: "bn2b_branch2c"
  type: "BatchNorm"
  bottom: "res2b_branch2c"
  top: "res2b_branch2c"
  param {
    lr_mult: 0
    decay_mult: 0
  }
  param {
    lr_mult: 0
    decay_mult: 0
  }
  param {
    lr_mult: 0
    decay_mult: 0
  }
  batch_norm_param {
    use_global_stats: true
    eps: 0.001
  }
}
layer {
  name: "scale2b_branch2c"
  type: "Scale"
  bottom: "res2b_branch2c"
  top: "res2b_branch2c"
  param {
    lr_mult: 0
    decay_mult: 0
  }
  param {
    lr_mult: 0
    decay_mult: 0
  }
  scale_param {
    filler {
      type: "constant"
      value: 1.0
    }
    bias_term: true
    bias_filler {
      type: "constant"
      value: 0.0
    }
  }
}
layer {
  name: "res2b"
  type: "Eltwise"
  bottom: "res2a"
  bottom: "res2b_branch2c"
  top: "res2b"
}
layer {
  name: "res2b_relu"
  type: "ReLU"
  bottom: "res2b"
  top: "res2b"
}
layer {
  name: "res2c_branch2a"
  type: "Convolution"
  bottom: "res2b"
  top: "res2c_branch2a"
  param {
    lr_mult: 1
    decay_mult: 1
  }
  convolution_param {
    num_output: 64
    bias_term: false
    pad: 0
    kernel_size: 1
    stride: 1
    weight_filler {
      type: "gaussian"
      std: 0.01
    }
  }
}
layer {
  name: "bn2c_branch2a"
  type: "BatchNorm"
  bottom: "res2c_branch2a"
  top: "res2c_branch2a"
  param {
    lr_mult: 0
    decay_mult: 0
  }
  param {
    lr_mult: 0
    decay_mult: 0
  }
  param {
    lr_mult: 0
    decay_mult: 0
  }
  batch_norm_param {
    use_global_stats: true
    eps: 0.001
  }
}
layer {
  name: "scale2c_branch2a"
  type: "Scale"
  bottom: "res2c_branch2a"
  top: "res2c_branch2a"
  param {
    lr_mult: 0
    decay_mult: 0
  }
  param {
    lr_mult: 0
    decay_mult: 0
  }
  scale_param {
    filler {
      type: "constant"
      value: 1.0
    }
    bias_term: true
    bias_filler {
      type: "constant"
      value: 0.0
    }
  }
}
layer {
  name: "res2c_branch2a_relu"
  type: "ReLU"
  bottom: "res2c_branch2a"
  top: "res2c_branch2a"
}
layer {
  name: "res2c_branch2b"
  type: "Convolution"
  bottom: "res2c_branch2a"
  top: "res2c_branch2b"
  param {
    lr_mult: 1
    decay_mult: 1
  }
  convolution_param {
    num_output: 64
    bias_term: false
    pad: 1
    kernel_size: 3
    stride: 1
    weight_filler {
      type: "gaussian"
      std: 0.01
    }
  }
}
layer {
  name: "bn2c_branch2b"
  type: "BatchNorm"
  bottom: "res2c_branch2b"
  top: "res2c_branch2b"
  param {
    lr_mult: 0
    decay_mult: 0
  }
  param {
    lr_mult: 0
    decay_mult: 0
  }
  param {
    lr_mult: 0
    decay_mult: 0
  }
  batch_norm_param {
    use_global_stats: true
    eps: 0.001
  }
}
layer {
  name: "scale2c_branch2b"
  type: "Scale"
  bottom: "res2c_branch2b"
  top: "res2c_branch2b"
  param {
    lr_mult: 0
    decay_mult: 0
  }
  param {
    lr_mult: 0
    decay_mult: 0
  }
  scale_param {
    filler {
      type: "constant"
      value: 1.0
    }
    bias_term: true
    bias_filler {
      type: "constant"
      value: 0.0
    }
  }
}
layer {
  name: "res2c_branch2b_relu"
  type: "ReLU"
  bottom: "res2c_branch2b"
  top: "res2c_branch2b"
}
layer {
  name: "res2c_branch2c"
  type: "Convolution"
  bottom: "res2c_branch2b"
  top: "res2c_branch2c"
  param {
    lr_mult: 1
    decay_mult: 1
  }
  convolution_param {
    num_output: 256
    bias_term: false
    pad: 0
    kernel_size: 1
    stride: 1
    weight_filler {
      type: "gaussian"
      std: 0.01
    }
  }
}
layer {
  name: "bn2c_branch2c"
  type: "BatchNorm"
  bottom: "res2c_branch2c"
  top: "res2c_branch2c"
  param {
    lr_mult: 0
    decay_mult: 0
  }
  param {
    lr_mult: 0
    decay_mult: 0
  }
  param {
    lr_mult: 0
    decay_mult: 0
  }
  batch_norm_param {
    use_global_stats: true
    eps: 0.001
  }
}
layer {
  name: "scale2c_branch2c"
  type: "Scale"
  bottom: "res2c_branch2c"
  top: "res2c_branch2c"
  param {
    lr_mult: 0
    decay_mult: 0
  }
  param {
    lr_mult: 0
    decay_mult: 0
  }
  scale_param {
    filler {
      type: "constant"
      value: 1.0
    }
    bias_term: true
    bias_filler {
      type: "constant"
      value: 0.0
    }
  }
}
layer {
  name: "res2c"
  type: "Eltwise"
  bottom: "res2b"
  bottom: "res2c_branch2c"
  top: "res2c"
}
layer {
  name: "res2c_relu"
  type: "ReLU"
  bottom: "res2c"
  top: "res2c"
}
layer {
  name: "res3a_branch1"
  type: "Convolution"
  bottom: "res2c"
  top: "res3a_branch1"
  param {
    lr_mult: 1
    decay_mult: 1
  }
  convolution_param {
    num_output: 512
    bias_term: false
    pad: 0
    kernel_size: 1
    stride: 2
    weight_filler {
      type: "gaussian"
      std: 0.01
    }
  }
}
layer {
  name: "bn3a_branch1"
  type: "BatchNorm"
  bottom: "res3a_branch1"
  top: "res3a_branch1"
  param {
    lr_mult: 0
    decay_mult: 0
  }
  param {
    lr_mult: 0
    decay_mult: 0
  }
  param {
    lr_mult: 0
    decay_mult: 0
  }
  batch_norm_param {
    use_global_stats: true
    eps: 0.001
  }
}
layer {
  name: "scale3a_branch1"
  type: "Scale"
  bottom: "res3a_branch1"
  top: "res3a_branch1"
  param {
    lr_mult: 0
    decay_mult: 0
  }
  param {
    lr_mult: 0
    decay_mult: 0
  }
  scale_param {
    filler {
      type: "constant"
      value: 1.0
    }
    bias_term: true
    bias_filler {
      type: "constant"
      value: 0.0
    }
  }
}
layer {
  name: "res3a_branch2a"
  type: "Convolution"
  bottom: "res2c"
  top: "res3a_branch2a"
  param {
    lr_mult: 1
    decay_mult: 1
  }
  convolution_param {
    num_output: 128
    bias_term: false
    pad: 0
    kernel_size: 1
    stride: 2
    weight_filler {
      type: "gaussian"
      std: 0.01
    }
  }
}
layer {
  name: "bn3a_branch2a"
  type: "BatchNorm"
  bottom: "res3a_branch2a"
  top: "res3a_branch2a"
  param {
    lr_mult: 0
    decay_mult: 0
  }
  param {
    lr_mult: 0
    decay_mult: 0
  }
  param {
    lr_mult: 0
    decay_mult: 0
  }
  batch_norm_param {
    use_global_stats: true
    eps: 0.001
  }
}
layer {
  name: "scale3a_branch2a"
  type: "Scale"
  bottom: "res3a_branch2a"
  top: "res3a_branch2a"
  param {
    lr_mult: 0
    decay_mult: 0
  }
  param {
    lr_mult: 0
    decay_mult: 0
  }
  scale_param {
    filler {
      type: "constant"
      value: 1.0
    }
    bias_term: true
    bias_filler {
      type: "constant"
      value: 0.0
    }
  }
}
layer {
  name: "res3a_branch2a_relu"
  type: "ReLU"
  bottom: "res3a_branch2a"
  top: "res3a_branch2a"
}
layer {
  name: "res3a_branch2b"
  type: "Convolution"
  bottom: "res3a_branch2a"
  top: "res3a_branch2b"
  param {
    lr_mult: 1
    decay_mult: 1
  }
  convolution_param {
    num_output: 128
    bias_term: false
    pad: 1
    kernel_size: 3
    stride: 1
    weight_filler {
      type: "gaussian"
      std: 0.01
    }
  }
}
layer {
  name: "bn3a_branch2b"
  type: "BatchNorm"
  bottom: "res3a_branch2b"
  top: "res3a_branch2b"
  param {
    lr_mult: 0
    decay_mult: 0
  }
  param {
    lr_mult: 0
    decay_mult: 0
  }
  param {
    lr_mult: 0
    decay_mult: 0
  }
  batch_norm_param {
    use_global_stats: true
    eps: 0.001
  }
}
layer {
  name: "scale3a_branch2b"
  type: "Scale"
  bottom: "res3a_branch2b"
  top: "res3a_branch2b"
  param {
    lr_mult: 0
    decay_mult: 0
  }
  param {
    lr_mult: 0
    decay_mult: 0
  }
  scale_param {
    filler {
      type: "constant"
      value: 1.0
    }
    bias_term: true
    bias_filler {
      type: "constant"
      value: 0.0
    }
  }
}
layer {
  name: "res3a_branch2b_relu"
  type: "ReLU"
  bottom: "res3a_branch2b"
  top: "res3a_branch2b"
}
layer {
  name: "res3a_branch2c"
  type: "Convolution"
  bottom: "res3a_branch2b"
  top: "res3a_branch2c"
  param {
    lr_mult: 1
    decay_mult: 1
  }
  convolution_param {
    num_output: 512
    bias_term: false
    pad: 0
    kernel_size: 1
    stride: 1
    weight_filler {
      type: "gaussian"
      std: 0.01
    }
  }
}
layer {
  name: "bn3a_branch2c"
  type: "BatchNorm"
  bottom: "res3a_branch2c"
  top: "res3a_branch2c"
  param {
    lr_mult: 0
    decay_mult: 0
  }
  param {
    lr_mult: 0
    decay_mult: 0
  }
  param {
    lr_mult: 0
    decay_mult: 0
  }
  batch_norm_param {
    use_global_stats: true
    eps: 0.001
  }
}
layer {
  name: "scale3a_branch2c"
  type: "Scale"
  bottom: "res3a_branch2c"
  top: "res3a_branch2c"
  param {
    lr_mult: 0
    decay_mult: 0
  }
  param {
    lr_mult: 0
    decay_mult: 0
  }
  scale_param {
    filler {
      type: "constant"
      value: 1.0
    }
    bias_term: true
    bias_filler {
      type: "constant"
      value: 0.0
    }
  }
}
layer {
  name: "res3a"
  type: "Eltwise"
  bottom: "res3a_branch1"
  bottom: "res3a_branch2c"
  top: "res3a"
}
layer {
  name: "res3a_relu"
  type: "ReLU"
  bottom: "res3a"
  top: "res3a"
}
layer {
  name: "res3b_branch2a"
  type: "Convolution"
  bottom: "res3a"
  top: "res3b_branch2a"
  param {
    lr_mult: 1
    decay_mult: 1
  }
  convolution_param {
    num_output: 128
    bias_term: false
    pad: 0
    kernel_size: 1
    stride: 1
    weight_filler {
      type: "gaussian"
      std: 0.01
    }
  }
}
layer {
  name: "bn3b_branch2a"
  type: "BatchNorm"
  bottom: "res3b_branch2a"
  top: "res3b_branch2a"
  param {
    lr_mult: 0
    decay_mult: 0
  }
  param {
    lr_mult: 0
    decay_mult: 0
  }
  param {
    lr_mult: 0
    decay_mult: 0
  }
  batch_norm_param {
    use_global_stats: true
    eps: 0.001
  }
}
layer {
  name: "scale3b_branch2a"
  type: "Scale"
  bottom: "res3b_branch2a"
  top: "res3b_branch2a"
  param {
    lr_mult: 0
    decay_mult: 0
  }
  param {
    lr_mult: 0
    decay_mult: 0
  }
  scale_param {
    filler {
      type: "constant"
      value: 1.0
    }
    bias_term: true
    bias_filler {
      type: "constant"
      value: 0.0
    }
  }
}
layer {
  name: "res3b_branch2a_relu"
  type: "ReLU"
  bottom: "res3b_branch2a"
  top: "res3b_branch2a"
}
layer {
  name: "res3b_branch2b"
  type: "Convolution"
  bottom: "res3b_branch2a"
  top: "res3b_branch2b"
  param {
    lr_mult: 1
    decay_mult: 1
  }
  convolution_param {
    num_output: 128
    bias_term: false
    pad: 1
    kernel_size: 3
    stride: 1
    weight_filler {
      type: "gaussian"
      std: 0.01
    }
  }
}
layer {
  name: "bn3b_branch2b"
  type: "BatchNorm"
  bottom: "res3b_branch2b"
  top: "res3b_branch2b"
  param {
    lr_mult: 0
    decay_mult: 0
  }
  param {
    lr_mult: 0
    decay_mult: 0
  }
  param {
    lr_mult: 0
    decay_mult: 0
  }
  batch_norm_param {
    use_global_stats: true
    eps: 0.001
  }
}
layer {
  name: "scale3b_branch2b"
  type: "Scale"
  bottom: "res3b_branch2b"
  top: "res3b_branch2b"
  param {
    lr_mult: 0
    decay_mult: 0
  }
  param {
    lr_mult: 0
    decay_mult: 0
  }
  scale_param {
    filler {
      type: "constant"
      value: 1.0
    }
    bias_term: true
    bias_filler {
      type: "constant"
      value: 0.0
    }
  }
}
layer {
  name: "res3b_branch2b_relu"
  type: "ReLU"
  bottom: "res3b_branch2b"
  top: "res3b_branch2b"
}
layer {
  name: "res3b_branch2c"
  type: "Convolution"
  bottom: "res3b_branch2b"
  top: "res3b_branch2c"
  param {
    lr_mult: 1
    decay_mult: 1
  }
  convolution_param {
    num_output: 512
    bias_term: false
    pad: 0
    kernel_size: 1
    stride: 1
    weight_filler {
      type: "gaussian"
      std: 0.01
    }
  }
}
layer {
  name: "bn3b_branch2c"
  type: "BatchNorm"
  bottom: "res3b_branch2c"
  top: "res3b_branch2c"
  param {
    lr_mult: 0
    decay_mult: 0
  }
  param {
    lr_mult: 0
    decay_mult: 0
  }
  param {
    lr_mult: 0
    decay_mult: 0
  }
  batch_norm_param {
    use_global_stats: true
    eps: 0.001
  }
}
layer {
  name: "scale3b_branch2c"
  type: "Scale"
  bottom: "res3b_branch2c"
  top: "res3b_branch2c"
  param {
    lr_mult: 0
    decay_mult: 0
  }
  param {
    lr_mult: 0
    decay_mult: 0
  }
  scale_param {
    filler {
      type: "constant"
      value: 1.0
    }
    bias_term: true
    bias_filler {
      type: "constant"
      value: 0.0
    }
  }
}
layer {
  name: "res3b"
  type: "Eltwise"
  bottom: "res3a"
  bottom: "res3b_branch2c"
  top: "res3b"
}
layer {
  name: "res3b_relu"
  type: "ReLU"
  bottom: "res3b"
  top: "res3b"
}
layer {
  name: "res3c_branch2a"
  type: "Convolution"
  bottom: "res3b"
  top: "res3c_branch2a"
  param {
    lr_mult: 1
    decay_mult: 1
  }
  convolution_param {
    num_output: 128
    bias_term: false
    pad: 0
    kernel_size: 1
    stride: 1
    weight_filler {
      type: "gaussian"
      std: 0.01
    }
  }
}
layer {
  name: "bn3c_branch2a"
  type: "BatchNorm"
  bottom: "res3c_branch2a"
  top: "res3c_branch2a"
  param {
    lr_mult: 0
    decay_mult: 0
  }
  param {
    lr_mult: 0
    decay_mult: 0
  }
  param {
    lr_mult: 0
    decay_mult: 0
  }
  batch_norm_param {
    use_global_stats: true
    eps: 0.001
  }
}
layer {
  name: "scale3c_branch2a"
  type: "Scale"
  bottom: "res3c_branch2a"
  top: "res3c_branch2a"
  param {
    lr_mult: 0
    decay_mult: 0
  }
  param {
    lr_mult: 0
    decay_mult: 0
  }
  scale_param {
    filler {
      type: "constant"
      value: 1.0
    }
    bias_term: true
    bias_filler {
      type: "constant"
      value: 0.0
    }
  }
}
layer {
  name: "res3c_branch2a_relu"
  type: "ReLU"
  bottom: "res3c_branch2a"
  top: "res3c_branch2a"
}
layer {
  name: "res3c_branch2b"
  type: "Convolution"
  bottom: "res3c_branch2a"
  top: "res3c_branch2b"
  param {
    lr_mult: 1
    decay_mult: 1
  }
  convolution_param {
    num_output: 128
    bias_term: false
    pad: 1
    kernel_size: 3
    stride: 1
    weight_filler {
      type: "gaussian"
      std: 0.01
    }
  }
}
layer {
  name: "bn3c_branch2b"
  type: "BatchNorm"
  bottom: "res3c_branch2b"
  top: "res3c_branch2b"
  param {
    lr_mult: 0
    decay_mult: 0
  }
  param {
    lr_mult: 0
    decay_mult: 0
  }
  param {
    lr_mult: 0
    decay_mult: 0
  }
  batch_norm_param {
    use_global_stats: true
    eps: 0.001
  }
}
layer {
  name: "scale3c_branch2b"
  type: "Scale"
  bottom: "res3c_branch2b"
  top: "res3c_branch2b"
  param {
    lr_mult: 0
    decay_mult: 0
  }
  param {
    lr_mult: 0
    decay_mult: 0
  }
  scale_param {
    filler {
      type: "constant"
      value: 1.0
    }
    bias_term: true
    bias_filler {
      type: "constant"
      value: 0.0
    }
  }
}
layer {
  name: "res3c_branch2b_relu"
  type: "ReLU"
  bottom: "res3c_branch2b"
  top: "res3c_branch2b"
}
layer {
  name: "res3c_branch2c"
  type: "Convolution"
  bottom: "res3c_branch2b"
  top: "res3c_branch2c"
  param {
    lr_mult: 1
    decay_mult: 1
  }
  convolution_param {
    num_output: 512
    bias_term: false
    pad: 0
    kernel_size: 1
    stride: 1
    weight_filler {
      type: "gaussian"
      std: 0.01
    }
  }
}
layer {
  name: "bn3c_branch2c"
  type: "BatchNorm"
  bottom: "res3c_branch2c"
  top: "res3c_branch2c"
  param {
    lr_mult: 0
    decay_mult: 0
  }
  param {
    lr_mult: 0
    decay_mult: 0
  }
  param {
    lr_mult: 0
    decay_mult: 0
  }
  batch_norm_param {
    use_global_stats: true
    eps: 0.001
  }
}
layer {
  name: "scale3c_branch2c"
  type: "Scale"
  bottom: "res3c_branch2c"
  top: "res3c_branch2c"
  param {
    lr_mult: 0
    decay_mult: 0
  }
  param {
    lr_mult: 0
    decay_mult: 0
  }
  scale_param {
    filler {
      type: "constant"
      value: 1.0
    }
    bias_term: true
    bias_filler {
      type: "constant"
      value: 0.0
    }
  }
}
layer {
  name: "res3c"
  type: "Eltwise"
  bottom: "res3b"
  bottom: "res3c_branch2c"
  top: "res3c"
}
layer {
  name: "res3c_relu"
  type: "ReLU"
  bottom: "res3c"
  top: "res3c"
}
layer {
  name: "res3d_branch2a"
  type: "Convolution"
  bottom: "res3c"
  top: "res3d_branch2a"
  param {
    lr_mult: 1
    decay_mult: 1
  }
  convolution_param {
    num_output: 128
    bias_term: false
    pad: 0
    kernel_size: 1
    stride: 1
    weight_filler {
      type: "gaussian"
      std: 0.01
    }
  }
}
layer {
  name: "bn3d_branch2a"
  type: "BatchNorm"
  bottom: "res3d_branch2a"
  top: "res3d_branch2a"
  param {
    lr_mult: 0
    decay_mult: 0
  }
  param {
    lr_mult: 0
    decay_mult: 0
  }
  param {
    lr_mult: 0
    decay_mult: 0
  }
  batch_norm_param {
    use_global_stats: true
    eps: 0.001
  }
}
layer {
  name: "scale3d_branch2a"
  type: "Scale"
  bottom: "res3d_branch2a"
  top: "res3d_branch2a"
  param {
    lr_mult: 0
    decay_mult: 0
  }
  param {
    lr_mult: 0
    decay_mult: 0
  }
  scale_param {
    filler {
      type: "constant"
      value: 1.0
    }
    bias_term: true
    bias_filler {
      type: "constant"
      value: 0.0
    }
  }
}
layer {
  name: "res3d_branch2a_relu"
  type: "ReLU"
  bottom: "res3d_branch2a"
  top: "res3d_branch2a"
}
layer {
  name: "res3d_branch2b"
  type: "Convolution"
  bottom: "res3d_branch2a"
  top: "res3d_branch2b"
  param {
    lr_mult: 1
    decay_mult: 1
  }
  convolution_param {
    num_output: 128
    bias_term: false
    pad: 1
    kernel_size: 3
    stride: 1
    weight_filler {
      type: "gaussian"
      std: 0.01
    }
  }
}
layer {
  name: "bn3d_branch2b"
  type: "BatchNorm"
  bottom: "res3d_branch2b"
  top: "res3d_branch2b"
  param {
    lr_mult: 0
    decay_mult: 0
  }
  param {
    lr_mult: 0
    decay_mult: 0
  }
  param {
    lr_mult: 0
    decay_mult: 0
  }
  batch_norm_param {
    use_global_stats: true
    eps: 0.001
  }
}
layer {
  name: "scale3d_branch2b"
  type: "Scale"
  bottom: "res3d_branch2b"
  top: "res3d_branch2b"
  param {
    lr_mult: 0
    decay_mult: 0
  }
  param {
    lr_mult: 0
    decay_mult: 0
  }
  scale_param {
    filler {
      type: "constant"
      value: 1.0
    }
    bias_term: true
    bias_filler {
      type: "constant"
      value: 0.0
    }
  }
}
layer {
  name: "res3d_branch2b_relu"
  type: "ReLU"
  bottom: "res3d_branch2b"
  top: "res3d_branch2b"
}
layer {
  name: "res3d_branch2c"
  type: "Convolution"
  bottom: "res3d_branch2b"
  top: "res3d_branch2c"
  param {
    lr_mult: 1
    decay_mult: 1
  }
  convolution_param {
    num_output: 512
    bias_term: false
    pad: 0
    kernel_size: 1
    stride: 1
    weight_filler {
      type: "gaussian"
      std: 0.01
    }
  }
}
layer {
  name: "bn3d_branch2c"
  type: "BatchNorm"
  bottom: "res3d_branch2c"
  top: "res3d_branch2c"
  param {
    lr_mult: 0
    decay_mult: 0
  }
  param {
    lr_mult: 0
    decay_mult: 0
  }
  param {
    lr_mult: 0
    decay_mult: 0
  }
  batch_norm_param {
    use_global_stats: true
    eps: 0.001
  }
}
layer {
  name: "scale3d_branch2c"
  type: "Scale"
  bottom: "res3d_branch2c"
  top: "res3d_branch2c"
  param {
    lr_mult: 0
    decay_mult: 0
  }
  param {
    lr_mult: 0
    decay_mult: 0
  }
  scale_param {
    filler {
      type: "constant"
      value: 1.0
    }
    bias_term: true
    bias_filler {
      type: "constant"
      value: 0.0
    }
  }
}
layer {
  name: "res3d"
  type: "Eltwise"
  bottom: "res3c"
  bottom: "res3d_branch2c"
  top: "res3d"
}
layer {
  name: "res3d_relu"
  type: "ReLU"
  bottom: "res3d"
  top: "res3d"
}
layer {
  name: "res4a_branch1"
  type: "Convolution"
  bottom: "res3d"
  top: "res4a_branch1"
  param {
    lr_mult: 1
    decay_mult: 1
  }
  convolution_param {
    num_output: 1024
    bias_term: false
    pad: 0
    kernel_size: 1
    stride: 2
    weight_filler {
      type: "gaussian"
      std: 0.01
    }
  }
}
layer {
  name: "bn4a_branch1"
  type: "BatchNorm"
  bottom: "res4a_branch1"
  top: "res4a_branch1"
  param {
    lr_mult: 0
    decay_mult: 0
  }
  param {
    lr_mult: 0
    decay_mult: 0
  }
  param {
    lr_mult: 0
    decay_mult: 0
  }
  batch_norm_param {
    use_global_stats: true
    eps: 0.001
  }
}
layer {
  name: "scale4a_branch1"
  type: "Scale"
  bottom: "res4a_branch1"
  top: "res4a_branch1"
  param {
    lr_mult: 0
    decay_mult: 0
  }
  param {
    lr_mult: 0
    decay_mult: 0
  }
  scale_param {
    filler {
      type: "constant"
      value: 1.0
    }
    bias_term: true
    bias_filler {
      type: "constant"
      value: 0.0
    }
  }
}
layer {
  name: "res4a_branch2a"
  type: "Convolution"
  bottom: "res3d"
  top: "res4a_branch2a"
  param {
    lr_mult: 1
    decay_mult: 1
  }
  convolution_param {
    num_output: 256
    bias_term: false
    pad: 0
    kernel_size: 1
    stride: 2
    weight_filler {
      type: "gaussian"
      std: 0.01
    }
  }
}
layer {
  name: "bn4a_branch2a"
  type: "BatchNorm"
  bottom: "res4a_branch2a"
  top: "res4a_branch2a"
  param {
    lr_mult: 0
    decay_mult: 0
  }
  param {
    lr_mult: 0
    decay_mult: 0
  }
  param {
    lr_mult: 0
    decay_mult: 0
  }
  batch_norm_param {
    use_global_stats: true
    eps: 0.001
  }
}
layer {
  name: "scale4a_branch2a"
  type: "Scale"
  bottom: "res4a_branch2a"
  top: "res4a_branch2a"
  param {
    lr_mult: 0
    decay_mult: 0
  }
  param {
    lr_mult: 0
    decay_mult: 0
  }
  scale_param {
    filler {
      type: "constant"
      value: 1.0
    }
    bias_term: true
    bias_filler {
      type: "constant"
      value: 0.0
    }
  }
}
layer {
  name: "res4a_branch2a_relu"
  type: "ReLU"
  bottom: "res4a_branch2a"
  top: "res4a_branch2a"
}
layer {
  name: "res4a_branch2b"
  type: "Convolution"
  bottom: "res4a_branch2a"
  top: "res4a_branch2b"
  param {
    lr_mult: 1
    decay_mult: 1
  }
  convolution_param {
    num_output: 256
    bias_term: false
    pad: 1
    kernel_size: 3
    stride: 1
    weight_filler {
      type: "gaussian"
      std: 0.01
    }
  }
}
layer {
  name: "bn4a_branch2b"
  type: "BatchNorm"
  bottom: "res4a_branch2b"
  top: "res4a_branch2b"
  param {
    lr_mult: 0
    decay_mult: 0
  }
  param {
    lr_mult: 0
    decay_mult: 0
  }
  param {
    lr_mult: 0
    decay_mult: 0
  }
  batch_norm_param {
    use_global_stats: true
    eps: 0.001
  }
}
layer {
  name: "scale4a_branch2b"
  type: "Scale"
  bottom: "res4a_branch2b"
  top: "res4a_branch2b"
  param {
    lr_mult: 0
    decay_mult: 0
  }
  param {
    lr_mult: 0
    decay_mult: 0
  }
  scale_param {
    filler {
      type: "constant"
      value: 1.0
    }
    bias_term: true
    bias_filler {
      type: "constant"
      value: 0.0
    }
  }
}
layer {
  name: "res4a_branch2b_relu"
  type: "ReLU"
  bottom: "res4a_branch2b"
  top: "res4a_branch2b"
}
layer {
  name: "res4a_branch2c"
  type: "Convolution"
  bottom: "res4a_branch2b"
  top: "res4a_branch2c"
  param {
    lr_mult: 1
    decay_mult: 1
  }
  convolution_param {
    num_output: 1024
    bias_term: false
    pad: 0
    kernel_size: 1
    stride: 1
    weight_filler {
      type: "gaussian"
      std: 0.01
    }
  }
}
layer {
  name: "bn4a_branch2c"
  type: "BatchNorm"
  bottom: "res4a_branch2c"
  top: "res4a_branch2c"
  param {
    lr_mult: 0
    decay_mult: 0
  }
  param {
    lr_mult: 0
    decay_mult: 0
  }
  param {
    lr_mult: 0
    decay_mult: 0
  }
  batch_norm_param {
    use_global_stats: true
    eps: 0.001
  }
}
layer {
  name: "scale4a_branch2c"
  type: "Scale"
  bottom: "res4a_branch2c"
  top: "res4a_branch2c"
  param {
    lr_mult: 0
    decay_mult: 0
  }
  param {
    lr_mult: 0
    decay_mult: 0
  }
  scale_param {
    filler {
      type: "constant"
      value: 1.0
    }
    bias_term: true
    bias_filler {
      type: "constant"
      value: 0.0
    }
  }
}
layer {
  name: "res4a"
  type: "Eltwise"
  bottom: "res4a_branch1"
  bottom: "res4a_branch2c"
  top: "res4a"
}
layer {
  name: "res4a_relu"
  type: "ReLU"
  bottom: "res4a"
  top: "res4a"
}
layer {
  name: "res4b_branch2a"
  type: "Convolution"
  bottom: "res4a"
  top: "res4b_branch2a"
  param {
    lr_mult: 1
    decay_mult: 1
  }
  convolution_param {
    num_output: 256
    bias_term: false
    pad: 0
    kernel_size: 1
    stride: 1
    weight_filler {
      type: "gaussian"
      std: 0.01
    }
  }
}
layer {
  name: "bn4b_branch2a"
  type: "BatchNorm"
  bottom: "res4b_branch2a"
  top: "res4b_branch2a"
  param {
    lr_mult: 0
    decay_mult: 0
  }
  param {
    lr_mult: 0
    decay_mult: 0
  }
  param {
    lr_mult: 0
    decay_mult: 0
  }
  batch_norm_param {
    use_global_stats: true
    eps: 0.001
  }
}
layer {
  name: "scale4b_branch2a"
  type: "Scale"
  bottom: "res4b_branch2a"
  top: "res4b_branch2a"
  param {
    lr_mult: 0
    decay_mult: 0
  }
  param {
    lr_mult: 0
    decay_mult: 0
  }
  scale_param {
    filler {
      type: "constant"
      value: 1.0
    }
    bias_term: true
    bias_filler {
      type: "constant"
      value: 0.0
    }
  }
}
layer {
  name: "res4b_branch2a_relu"
  type: "ReLU"
  bottom: "res4b_branch2a"
  top: "res4b_branch2a"
}
layer {
  name: "res4b_branch2b"
  type: "Convolution"
  bottom: "res4b_branch2a"
  top: "res4b_branch2b"
  param {
    lr_mult: 1
    decay_mult: 1
  }
  convolution_param {
    num_output: 256
    bias_term: false
    pad: 1
    kernel_size: 3
    stride: 1
    weight_filler {
      type: "gaussian"
      std: 0.01
    }
  }
}
layer {
  name: "bn4b_branch2b"
  type: "BatchNorm"
  bottom: "res4b_branch2b"
  top: "res4b_branch2b"
  param {
    lr_mult: 0
    decay_mult: 0
  }
  param {
    lr_mult: 0
    decay_mult: 0
  }
  param {
    lr_mult: 0
    decay_mult: 0
  }
  batch_norm_param {
    use_global_stats: true
    eps: 0.001
  }
}
layer {
  name: "scale4b_branch2b"
  type: "Scale"
  bottom: "res4b_branch2b"
  top: "res4b_branch2b"
  param {
    lr_mult: 0
    decay_mult: 0
  }
  param {
    lr_mult: 0
    decay_mult: 0
  }
  scale_param {
    filler {
      type: "constant"
      value: 1.0
    }
    bias_term: true
    bias_filler {
      type: "constant"
      value: 0.0
    }
  }
}
layer {
  name: "res4b_branch2b_relu"
  type: "ReLU"
  bottom: "res4b_branch2b"
  top: "res4b_branch2b"
}
layer {
  name: "res4b_branch2c"
  type: "Convolution"
  bottom: "res4b_branch2b"
  top: "res4b_branch2c"
  param {
    lr_mult: 1
    decay_mult: 1
  }
  convolution_param {
    num_output: 1024
    bias_term: false
    pad: 0
    kernel_size: 1
    stride: 1
    weight_filler {
      type: "gaussian"
      std: 0.01
    }
  }
}
layer {
  name: "bn4b_branch2c"
  type: "BatchNorm"
  bottom: "res4b_branch2c"
  top: "res4b_branch2c"
  param {
    lr_mult: 0
    decay_mult: 0
  }
  param {
    lr_mult: 0
    decay_mult: 0
  }
  param {
    lr_mult: 0
    decay_mult: 0
  }
  batch_norm_param {
    use_global_stats: true
    eps: 0.001
  }
}
layer {
  name: "scale4b_branch2c"
  type: "Scale"
  bottom: "res4b_branch2c"
  top: "res4b_branch2c"
  param {
    lr_mult: 0
    decay_mult: 0
  }
  param {
    lr_mult: 0
    decay_mult: 0
  }
  scale_param {
    filler {
      type: "constant"
      value: 1.0
    }
    bias_term: true
    bias_filler {
      type: "constant"
      value: 0.0
    }
  }
}
layer {
  name: "res4b"
  type: "Eltwise"
  bottom: "res4a"
  bottom: "res4b_branch2c"
  top: "res4b"
}
layer {
  name: "res4b_relu"
  type: "ReLU"
  bottom: "res4b"
  top: "res4b"
}
layer {
  name: "res4c_branch2a"
  type: "Convolution"
  bottom: "res4b"
  top: "res4c_branch2a"
  param {
    lr_mult: 1
    decay_mult: 1
  }
  convolution_param {
    num_output: 256
    bias_term: false
    pad: 0
    kernel_size: 1
    stride: 1
    weight_filler {
      type: "gaussian"
      std: 0.01
    }
  }
}
layer {
  name: "bn4c_branch2a"
  type: "BatchNorm"
  bottom: "res4c_branch2a"
  top: "res4c_branch2a"
  param {
    lr_mult: 0
    decay_mult: 0
  }
  param {
    lr_mult: 0
    decay_mult: 0
  }
  param {
    lr_mult: 0
    decay_mult: 0
  }
  batch_norm_param {
    use_global_stats: true
    eps: 0.001
  }
}
layer {
  name: "scale4c_branch2a"
  type: "Scale"
  bottom: "res4c_branch2a"
  top: "res4c_branch2a"
  param {
    lr_mult: 0
    decay_mult: 0
  }
  param {
    lr_mult: 0
    decay_mult: 0
  }
  scale_param {
    filler {
      type: "constant"
      value: 1.0
    }
    bias_term: true
    bias_filler {
      type: "constant"
      value: 0.0
    }
  }
}
layer {
  name: "res4c_branch2a_relu"
  type: "ReLU"
  bottom: "res4c_branch2a"
  top: "res4c_branch2a"
}
layer {
  name: "res4c_branch2b"
  type: "Convolution"
  bottom: "res4c_branch2a"
  top: "res4c_branch2b"
  param {
    lr_mult: 1
    decay_mult: 1
  }
  convolution_param {
    num_output: 256
    bias_term: false
    pad: 1
    kernel_size: 3
    stride: 1
    weight_filler {
      type: "gaussian"
      std: 0.01
    }
  }
}
layer {
  name: "bn4c_branch2b"
  type: "BatchNorm"
  bottom: "res4c_branch2b"
  top: "res4c_branch2b"
  param {
    lr_mult: 0
    decay_mult: 0
  }
  param {
    lr_mult: 0
    decay_mult: 0
  }
  param {
    lr_mult: 0
    decay_mult: 0
  }
  batch_norm_param {
    use_global_stats: true
    eps: 0.001
  }
}
layer {
  name: "scale4c_branch2b"
  type: "Scale"
  bottom: "res4c_branch2b"
  top: "res4c_branch2b"
  param {
    lr_mult: 0
    decay_mult: 0
  }
  param {
    lr_mult: 0
    decay_mult: 0
  }
  scale_param {
    filler {
      type: "constant"
      value: 1.0
    }
    bias_term: true
    bias_filler {
      type: "constant"
      value: 0.0
    }
  }
}
layer {
  name: "res4c_branch2b_relu"
  type: "ReLU"
  bottom: "res4c_branch2b"
  top: "res4c_branch2b"
}
layer {
  name: "res4c_branch2c"
  type: "Convolution"
  bottom: "res4c_branch2b"
  top: "res4c_branch2c"
  param {
    lr_mult: 1
    decay_mult: 1
  }
  convolution_param {
    num_output: 1024
    bias_term: false
    pad: 0
    kernel_size: 1
    stride: 1
    weight_filler {
      type: "gaussian"
      std: 0.01
    }
  }
}
layer {
  name: "bn4c_branch2c"
  type: "BatchNorm"
  bottom: "res4c_branch2c"
  top: "res4c_branch2c"
  param {
    lr_mult: 0
    decay_mult: 0
  }
  param {
    lr_mult: 0
    decay_mult: 0
  }
  param {
    lr_mult: 0
    decay_mult: 0
  }
  batch_norm_param {
    use_global_stats: true
    eps: 0.001
  }
}
layer {
  name: "scale4c_branch2c"
  type: "Scale"
  bottom: "res4c_branch2c"
  top: "res4c_branch2c"
  param {
    lr_mult: 0
    decay_mult: 0
  }
  param {
    lr_mult: 0
    decay_mult: 0
  }
  scale_param {
    filler {
      type: "constant"
      value: 1.0
    }
    bias_term: true
    bias_filler {
      type: "constant"
      value: 0.0
    }
  }
}
layer {
  name: "res4c"
  type: "Eltwise"
  bottom: "res4b"
  bottom: "res4c_branch2c"
  top: "res4c"
}
layer {
  name: "res4c_relu"
  type: "ReLU"
  bottom: "res4c"
  top: "res4c"
}
layer {
  name: "res4d_branch2a"
  type: "Convolution"
  bottom: "res4c"
  top: "res4d_branch2a"
  param {
    lr_mult: 1
    decay_mult: 1
  }
  convolution_param {
    num_output: 256
    bias_term: false
    pad: 0
    kernel_size: 1
    stride: 1
    weight_filler {
      type: "gaussian"
      std: 0.01
    }
  }
}
layer {
  name: "bn4d_branch2a"
  type: "BatchNorm"
  bottom: "res4d_branch2a"
  top: "res4d_branch2a"
  param {
    lr_mult: 0
    decay_mult: 0
  }
  param {
    lr_mult: 0
    decay_mult: 0
  }
  param {
    lr_mult: 0
    decay_mult: 0
  }
  batch_norm_param {
    use_global_stats: true
    eps: 0.001
  }
}
layer {
  name: "scale4d_branch2a"
  type: "Scale"
  bottom: "res4d_branch2a"
  top: "res4d_branch2a"
  param {
    lr_mult: 0
    decay_mult: 0
  }
  param {
    lr_mult: 0
    decay_mult: 0
  }
  scale_param {
    filler {
      type: "constant"
      value: 1.0
    }
    bias_term: true
    bias_filler {
      type: "constant"
      value: 0.0
    }
  }
}
layer {
  name: "res4d_branch2a_relu"
  type: "ReLU"
  bottom: "res4d_branch2a"
  top: "res4d_branch2a"
}
layer {
  name: "res4d_branch2b"
  type: "Convolution"
  bottom: "res4d_branch2a"
  top: "res4d_branch2b"
  param {
    lr_mult: 1
    decay_mult: 1
  }
  convolution_param {
    num_output: 256
    bias_term: false
    pad: 1
    kernel_size: 3
    stride: 1
    weight_filler {
      type: "gaussian"
      std: 0.01
    }
  }
}
layer {
  name: "bn4d_branch2b"
  type: "BatchNorm"
  bottom: "res4d_branch2b"
  top: "res4d_branch2b"
  param {
    lr_mult: 0
    decay_mult: 0
  }
  param {
    lr_mult: 0
    decay_mult: 0
  }
  param {
    lr_mult: 0
    decay_mult: 0
  }
  batch_norm_param {
    use_global_stats: true
    eps: 0.001
  }
}
layer {
  name: "scale4d_branch2b"
  type: "Scale"
  bottom: "res4d_branch2b"
  top: "res4d_branch2b"
  param {
    lr_mult: 0
    decay_mult: 0
  }
  param {
    lr_mult: 0
    decay_mult: 0
  }
  scale_param {
    filler {
      type: "constant"
      value: 1.0
    }
    bias_term: true
    bias_filler {
      type: "constant"
      value: 0.0
    }
  }
}
layer {
  name: "res4d_branch2b_relu"
  type: "ReLU"
  bottom: "res4d_branch2b"
  top: "res4d_branch2b"
}
layer {
  name: "res4d_branch2c"
  type: "Convolution"
  bottom: "res4d_branch2b"
  top: "res4d_branch2c"
  param {
    lr_mult: 1
    decay_mult: 1
  }
  convolution_param {
    num_output: 1024
    bias_term: false
    pad: 0
    kernel_size: 1
    stride: 1
    weight_filler {
      type: "gaussian"
      std: 0.01
    }
  }
}
layer {
  name: "bn4d_branch2c"
  type: "BatchNorm"
  bottom: "res4d_branch2c"
  top: "res4d_branch2c"
  param {
    lr_mult: 0
    decay_mult: 0
  }
  param {
    lr_mult: 0
    decay_mult: 0
  }
  param {
    lr_mult: 0
    decay_mult: 0
  }
  batch_norm_param {
    use_global_stats: true
    eps: 0.001
  }
}
layer {
  name: "scale4d_branch2c"
  type: "Scale"
  bottom: "res4d_branch2c"
  top: "res4d_branch2c"
  param {
    lr_mult: 0
    decay_mult: 0
  }
  param {
    lr_mult: 0
    decay_mult: 0
  }
  scale_param {
    filler {
      type: "constant"
      value: 1.0
    }
    bias_term: true
    bias_filler {
      type: "constant"
      value: 0.0
    }
  }
}
layer {
  name: "res4d"
  type: "Eltwise"
  bottom: "res4c"
  bottom: "res4d_branch2c"
  top: "res4d"
}
layer {
  name: "res4d_relu"
  type: "ReLU"
  bottom: "res4d"
  top: "res4d"
}
layer {
  name: "res4e_branch2a"
  type: "Convolution"
  bottom: "res4d"
  top: "res4e_branch2a"
  param {
    lr_mult: 1
    decay_mult: 1
  }
  convolution_param {
    num_output: 256
    bias_term: false
    pad: 0
    kernel_size: 1
    stride: 1
    weight_filler {
      type: "gaussian"
      std: 0.01
    }
  }
}
layer {
  name: "bn4e_branch2a"
  type: "BatchNorm"
  bottom: "res4e_branch2a"
  top: "res4e_branch2a"
  param {
    lr_mult: 0
    decay_mult: 0
  }
  param {
    lr_mult: 0
    decay_mult: 0
  }
  param {
    lr_mult: 0
    decay_mult: 0
  }
  batch_norm_param {
    use_global_stats: true
    eps: 0.001
  }
}
layer {
  name: "scale4e_branch2a"
  type: "Scale"
  bottom: "res4e_branch2a"
  top: "res4e_branch2a"
  param {
    lr_mult: 0
    decay_mult: 0
  }
  param {
    lr_mult: 0
    decay_mult: 0
  }
  scale_param {
    filler {
      type: "constant"
      value: 1.0
    }
    bias_term: true
    bias_filler {
      type: "constant"
      value: 0.0
    }
  }
}
layer {
  name: "res4e_branch2a_relu"
  type: "ReLU"
  bottom: "res4e_branch2a"
  top: "res4e_branch2a"
}
layer {
  name: "res4e_branch2b"
  type: "Convolution"
  bottom: "res4e_branch2a"
  top: "res4e_branch2b"
  param {
    lr_mult: 1
    decay_mult: 1
  }
  convolution_param {
    num_output: 256
    bias_term: false
    pad: 1
    kernel_size: 3
    stride: 1
    weight_filler {
      type: "gaussian"
      std: 0.01
    }
  }
}
layer {
  name: "bn4e_branch2b"
  type: "BatchNorm"
  bottom: "res4e_branch2b"
  top: "res4e_branch2b"
  param {
    lr_mult: 0
    decay_mult: 0
  }
  param {
    lr_mult: 0
    decay_mult: 0
  }
  param {
    lr_mult: 0
    decay_mult: 0
  }
  batch_norm_param {
    use_global_stats: true
    eps: 0.001
  }
}
layer {
  name: "scale4e_branch2b"
  type: "Scale"
  bottom: "res4e_branch2b"
  top: "res4e_branch2b"
  param {
    lr_mult: 0
    decay_mult: 0
  }
  param {
    lr_mult: 0
    decay_mult: 0
  }
  scale_param {
    filler {
      type: "constant"
      value: 1.0
    }
    bias_term: true
    bias_filler {
      type: "constant"
      value: 0.0
    }
  }
}
layer {
  name: "res4e_branch2b_relu"
  type: "ReLU"
  bottom: "res4e_branch2b"
  top: "res4e_branch2b"
}
layer {
  name: "res4e_branch2c"
  type: "Convolution"
  bottom: "res4e_branch2b"
  top: "res4e_branch2c"
  param {
    lr_mult: 1
    decay_mult: 1
  }
  convolution_param {
    num_output: 1024
    bias_term: false
    pad: 0
    kernel_size: 1
    stride: 1
    weight_filler {
      type: "gaussian"
      std: 0.01
    }
  }
}
layer {
  name: "bn4e_branch2c"
  type: "BatchNorm"
  bottom: "res4e_branch2c"
  top: "res4e_branch2c"
  param {
    lr_mult: 0
    decay_mult: 0
  }
  param {
    lr_mult: 0
    decay_mult: 0
  }
  param {
    lr_mult: 0
    decay_mult: 0
  }
  batch_norm_param {
    use_global_stats: true
    eps: 0.001
  }
}
layer {
  name: "scale4e_branch2c"
  type: "Scale"
  bottom: "res4e_branch2c"
  top: "res4e_branch2c"
  param {
    lr_mult: 0
    decay_mult: 0
  }
  param {
    lr_mult: 0
    decay_mult: 0
  }
  scale_param {
    filler {
      type: "constant"
      value: 1.0
    }
    bias_term: true
    bias_filler {
      type: "constant"
      value: 0.0
    }
  }
}
layer {
  name: "res4e"
  type: "Eltwise"
  bottom: "res4d"
  bottom: "res4e_branch2c"
  top: "res4e"
}
layer {
  name: "res4e_relu"
  type: "ReLU"
  bottom: "res4e"
  top: "res4e"
}
layer {
  name: "res4f_branch2a"
  type: "Convolution"
  bottom: "res4e"
  top: "res4f_branch2a"
  param {
    lr_mult: 1
    decay_mult: 1
  }
  convolution_param {
    num_output: 256
    bias_term: false
    pad: 0
    kernel_size: 1
    stride: 1
    weight_filler {
      type: "gaussian"
      std: 0.01
    }
  }
}
layer {
  name: "bn4f_branch2a"
  type: "BatchNorm"
  bottom: "res4f_branch2a"
  top: "res4f_branch2a"
  param {
    lr_mult: 0
    decay_mult: 0
  }
  param {
    lr_mult: 0
    decay_mult: 0
  }
  param {
    lr_mult: 0
    decay_mult: 0
  }
  batch_norm_param {
    use_global_stats: true
    eps: 0.001
  }
}
layer {
  name: "scale4f_branch2a"
  type: "Scale"
  bottom: "res4f_branch2a"
  top: "res4f_branch2a"
  param {
    lr_mult: 0
    decay_mult: 0
  }
  param {
    lr_mult: 0
    decay_mult: 0
  }
  scale_param {
    filler {
      type: "constant"
      value: 1.0
    }
    bias_term: true
    bias_filler {
      type: "constant"
      value: 0.0
    }
  }
}
layer {
  name: "res4f_branch2a_relu"
  type: "ReLU"
  bottom: "res4f_branch2a"
  top: "res4f_branch2a"
}
layer {
  name: "res4f_branch2b"
  type: "Convolution"
  bottom: "res4f_branch2a"
  top: "res4f_branch2b"
  param {
    lr_mult: 1
    decay_mult: 1
  }
  convolution_param {
    num_output: 256
    bias_term: false
    pad: 1
    kernel_size: 3
    stride: 1
    weight_filler {
      type: "gaussian"
      std: 0.01
    }
  }
}
layer {
  name: "bn4f_branch2b"
  type: "BatchNorm"
  bottom: "res4f_branch2b"
  top: "res4f_branch2b"
  param {
    lr_mult: 0
    decay_mult: 0
  }
  param {
    lr_mult: 0
    decay_mult: 0
  }
  param {
    lr_mult: 0
    decay_mult: 0
  }
  batch_norm_param {
    use_global_stats: true
    eps: 0.001
  }
}
layer {
  name: "scale4f_branch2b"
  type: "Scale"
  bottom: "res4f_branch2b"
  top: "res4f_branch2b"
  param {
    lr_mult: 0
    decay_mult: 0
  }
  param {
    lr_mult: 0
    decay_mult: 0
  }
  scale_param {
    filler {
      type: "constant"
      value: 1.0
    }
    bias_term: true
    bias_filler {
      type: "constant"
      value: 0.0
    }
  }
}
layer {
  name: "res4f_branch2b_relu"
  type: "ReLU"
  bottom: "res4f_branch2b"
  top: "res4f_branch2b"
}
layer {
  name: "res4f_branch2c"
  type: "Convolution"
  bottom: "res4f_branch2b"
  top: "res4f_branch2c"
  param {
    lr_mult: 1
    decay_mult: 1
  }
  convolution_param {
    num_output: 1024
    bias_term: false
    pad: 0
    kernel_size: 1
    stride: 1
    weight_filler {
      type: "gaussian"
      std: 0.01
    }
  }
}
layer {
  name: "bn4f_branch2c"
  type: "BatchNorm"
  bottom: "res4f_branch2c"
  top: "res4f_branch2c"
  param {
    lr_mult: 0
    decay_mult: 0
  }
  param {
    lr_mult: 0
    decay_mult: 0
  }
  param {
    lr_mult: 0
    decay_mult: 0
  }
  batch_norm_param {
    use_global_stats: true
    eps: 0.001
  }
}
layer {
  name: "scale4f_branch2c"
  type: "Scale"
  bottom: "res4f_branch2c"
  top: "res4f_branch2c"
  param {
    lr_mult: 0
    decay_mult: 0
  }
  param {
    lr_mult: 0
    decay_mult: 0
  }
  scale_param {
    filler {
      type: "constant"
      value: 1.0
    }
    bias_term: true
    bias_filler {
      type: "constant"
      value: 0.0
    }
  }
}
layer {
  name: "res4f"
  type: "Eltwise"
  bottom: "res4e"
  bottom: "res4f_branch2c"
  top: "res4f"
}
layer {
  name: "res4f_relu"
  type: "ReLU"
  bottom: "res4f"
  top: "res4f"
}
layer {
  name: "res5a_branch1"
  type: "Convolution"
  bottom: "res4f"
  top: "res5a_branch1"
  param {
    lr_mult: 1
    decay_mult: 1
  }
  convolution_param {
    num_output: 2048
    bias_term: false
    pad: 0
    kernel_size: 1
    stride: 1
    weight_filler {
      type: "gaussian"
      std: 0.01
    }
  }
}
layer {
  name: "bn5a_branch1"
  type: "BatchNorm"
  bottom: "res5a_branch1"
  top: "res5a_branch1"
  param {
    lr_mult: 0
    decay_mult: 0
  }
  param {
    lr_mult: 0
    decay_mult: 0
  }
  param {
    lr_mult: 0
    decay_mult: 0
  }
  batch_norm_param {
    use_global_stats: true
    eps: 0.001
  }
}
layer {
  name: "scale5a_branch1"
  type: "Scale"
  bottom: "res5a_branch1"
  top: "res5a_branch1"
  param {
    lr_mult: 0
    decay_mult: 0
  }
  param {
    lr_mult: 0
    decay_mult: 0
  }
  scale_param {
    filler {
      type: "constant"
      value: 1.0
    }
    bias_term: true
    bias_filler {
      type: "constant"
      value: 0.0
    }
  }
}
layer {
  name: "res5a_branch2a"
  type: "Convolution"
  bottom: "res4f"
  top: "res5a_branch2a"
  param {
    lr_mult: 1
    decay_mult: 1
  }
  convolution_param {
    num_output: 512
    bias_term: false
    pad: 0
    kernel_size: 1
    stride: 1
    weight_filler {
      type: "gaussian"
      std: 0.01
    }
  }
}
layer {
  name: "bn5a_branch2a"
  type: "BatchNorm"
  bottom: "res5a_branch2a"
  top: "res5a_branch2a"
  param {
    lr_mult: 0
    decay_mult: 0
  }
  param {
    lr_mult: 0
    decay_mult: 0
  }
  param {
    lr_mult: 0
    decay_mult: 0
  }
  batch_norm_param {
    use_global_stats: true
    eps: 0.001
  }
}
layer {
  name: "scale5a_branch2a"
  type: "Scale"
  bottom: "res5a_branch2a"
  top: "res5a_branch2a"
  param {
    lr_mult: 0
    decay_mult: 0
  }
  param {
    lr_mult: 0
    decay_mult: 0
  }
  scale_param {
    filler {
      type: "constant"
      value: 1.0
    }
    bias_term: true
    bias_filler {
      type: "constant"
      value: 0.0
    }
  }
}
layer {
  name: "res5a_branch2a_relu"
  type: "ReLU"
  bottom: "res5a_branch2a"
  top: "res5a_branch2a"
}
layer {
  name: "res5a_branch2b"
  type: "Convolution"
  bottom: "res5a_branch2a"
  top: "res5a_branch2b"
  param {
    lr_mult: 1
    decay_mult: 1
  }
  convolution_param {
    num_output: 512
    bias_term: false
    pad: 2
    kernel_size: 3
    stride: 1
    weight_filler {
      type: "gaussian"
      std: 0.01
    }
    dilation: 2
  }
}
layer {
  name: "bn5a_branch2b"
  type: "BatchNorm"
  bottom: "res5a_branch2b"
  top: "res5a_branch2b"
  param {
    lr_mult: 0
    decay_mult: 0
  }
  param {
    lr_mult: 0
    decay_mult: 0
  }
  param {
    lr_mult: 0
    decay_mult: 0
  }
  batch_norm_param {
    use_global_stats: true
    eps: 0.001
  }
}
layer {
  name: "scale5a_branch2b"
  type: "Scale"
  bottom: "res5a_branch2b"
  top: "res5a_branch2b"
  param {
    lr_mult: 0
    decay_mult: 0
  }
  param {
    lr_mult: 0
    decay_mult: 0
  }
  scale_param {
    filler {
      type: "constant"
      value: 1.0
    }
    bias_term: true
    bias_filler {
      type: "constant"
      value: 0.0
    }
  }
}
layer {
  name: "res5a_branch2b_relu"
  type: "ReLU"
  bottom: "res5a_branch2b"
  top: "res5a_branch2b"
}
layer {
  name: "res5a_branch2c"
  type: "Convolution"
  bottom: "res5a_branch2b"
  top: "res5a_branch2c"
  param {
    lr_mult: 1
    decay_mult: 1
  }
  convolution_param {
    num_output: 2048
    bias_term: false
    pad: 0
    kernel_size: 1
    stride: 1
    weight_filler {
      type: "gaussian"
      std: 0.01
    }
  }
}
layer {
  name: "bn5a_branch2c"
  type: "BatchNorm"
  bottom: "res5a_branch2c"
  top: "res5a_branch2c"
  param {
    lr_mult: 0
    decay_mult: 0
  }
  param {
    lr_mult: 0
    decay_mult: 0
  }
  param {
    lr_mult: 0
    decay_mult: 0
  }
  batch_norm_param {
    use_global_stats: true
    eps: 0.001
  }
}
layer {
  name: "scale5a_branch2c"
  type: "Scale"
  bottom: "res5a_branch2c"
  top: "res5a_branch2c"
  param {
    lr_mult: 0
    decay_mult: 0
  }
  param {
    lr_mult: 0
    decay_mult: 0
  }
  scale_param {
    filler {
      type: "constant"
      value: 1.0
    }
    bias_term: true
    bias_filler {
      type: "constant"
      value: 0.0
    }
  }
}
layer {
  name: "res5a"
  type: "Eltwise"
  bottom: "res5a_branch1"
  bottom: "res5a_branch2c"
  top: "res5a"
}
layer {
  name: "res5a_relu"
  type: "ReLU"
  bottom: "res5a"
  top: "res5a"
}
layer {
  name: "res5b_branch2a"
  type: "Convolution"
  bottom: "res5a"
  top: "res5b_branch2a"
  param {
    lr_mult: 1
    decay_mult: 1
  }
  convolution_param {
    num_output: 512
    bias_term: false
    pad: 0
    kernel_size: 1
    stride: 1
    weight_filler {
      type: "gaussian"
      std: 0.01
    }
  }
}
layer {
  name: "bn5b_branch2a"
  type: "BatchNorm"
  bottom: "res5b_branch2a"
  top: "res5b_branch2a"
  param {
    lr_mult: 0
    decay_mult: 0
  }
  param {
    lr_mult: 0
    decay_mult: 0
  }
  param {
    lr_mult: 0
    decay_mult: 0
  }
  batch_norm_param {
    use_global_stats: true
    eps: 0.001
  }
}
layer {
  name: "scale5b_branch2a"
  type: "Scale"
  bottom: "res5b_branch2a"
  top: "res5b_branch2a"
  param {
    lr_mult: 0
    decay_mult: 0
  }
  param {
    lr_mult: 0
    decay_mult: 0
  }
  scale_param {
    filler {
      type: "constant"
      value: 1.0
    }
    bias_term: true
    bias_filler {
      type: "constant"
      value: 0.0
    }
  }
}
layer {
  name: "res5b_branch2a_relu"
  type: "ReLU"
  bottom: "res5b_branch2a"
  top: "res5b_branch2a"
}
layer {
  name: "res5b_branch2b"
  type: "Convolution"
  bottom: "res5b_branch2a"
  top: "res5b_branch2b"
  param {
    lr_mult: 1
    decay_mult: 1
  }
  convolution_param {
    num_output: 512
    bias_term: false
    pad: 2
    kernel_size: 3
    stride: 1
    weight_filler {
      type: "gaussian"
      std: 0.01
    }
    dilation: 2
  }
}
layer {
  name: "bn5b_branch2b"
  type: "BatchNorm"
  bottom: "res5b_branch2b"
  top: "res5b_branch2b"
  param {
    lr_mult: 0
    decay_mult: 0
  }
  param {
    lr_mult: 0
    decay_mult: 0
  }
  param {
    lr_mult: 0
    decay_mult: 0
  }
  batch_norm_param {
    use_global_stats: true
    eps: 0.001
  }
}
layer {
  name: "scale5b_branch2b"
  type: "Scale"
  bottom: "res5b_branch2b"
  top: "res5b_branch2b"
  param {
    lr_mult: 0
    decay_mult: 0
  }
  param {
    lr_mult: 0
    decay_mult: 0
  }
  scale_param {
    filler {
      type: "constant"
      value: 1.0
    }
    bias_term: true
    bias_filler {
      type: "constant"
      value: 0.0
    }
  }
}
layer {
  name: "res5b_branch2b_relu"
  type: "ReLU"
  bottom: "res5b_branch2b"
  top: "res5b_branch2b"
}
layer {
  name: "res5b_branch2c"
  type: "Convolution"
  bottom: "res5b_branch2b"
  top: "res5b_branch2c"
  param {
    lr_mult: 1
    decay_mult: 1
  }
  convolution_param {
    num_output: 2048
    bias_term: false
    pad: 0
    kernel_size: 1
    stride: 1
    weight_filler {
      type: "gaussian"
      std: 0.01
    }
  }
}
layer {
  name: "bn5b_branch2c"
  type: "BatchNorm"
  bottom: "res5b_branch2c"
  top: "res5b_branch2c"
  param {
    lr_mult: 0
    decay_mult: 0
  }
  param {
    lr_mult: 0
    decay_mult: 0
  }
  param {
    lr_mult: 0
    decay_mult: 0
  }
  batch_norm_param {
    use_global_stats: true
    eps: 0.001
  }
}
layer {
  name: "scale5b_branch2c"
  type: "Scale"
  bottom: "res5b_branch2c"
  top: "res5b_branch2c"
  param {
    lr_mult: 0
    decay_mult: 0
  }
  param {
    lr_mult: 0
    decay_mult: 0
  }
  scale_param {
    filler {
      type: "constant"
      value: 1.0
    }
    bias_term: true
    bias_filler {
      type: "constant"
      value: 0.0
    }
  }
}
layer {
  name: "res5b"
  type: "Eltwise"
  bottom: "res5a"
  bottom: "res5b_branch2c"
  top: "res5b"
}
layer {
  name: "res5b_relu"
  type: "ReLU"
  bottom: "res5b"
  top: "res5b"
}
layer {
  name: "res5c_branch2a"
  type: "Convolution"
  bottom: "res5b"
  top: "res5c_branch2a"
  param {
    lr_mult: 1
    decay_mult: 1
  }
  convolution_param {
    num_output: 512
    bias_term: false
    pad: 0
    kernel_size: 1
    stride: 1
    weight_filler {
      type: "gaussian"
      std: 0.01
    }
  }
}
layer {
  name: "bn5c_branch2a"
  type: "BatchNorm"
  bottom: "res5c_branch2a"
  top: "res5c_branch2a"
  param {
    lr_mult: 0
    decay_mult: 0
  }
  param {
    lr_mult: 0
    decay_mult: 0
  }
  param {
    lr_mult: 0
    decay_mult: 0
  }
  batch_norm_param {
    use_global_stats: true
    eps: 0.001
  }
}
layer {
  name: "scale5c_branch2a"
  type: "Scale"
  bottom: "res5c_branch2a"
  top: "res5c_branch2a"
  param {
    lr_mult: 0
    decay_mult: 0
  }
  param {
    lr_mult: 0
    decay_mult: 0
  }
  scale_param {
    filler {
      type: "constant"
      value: 1.0
    }
    bias_term: true
    bias_filler {
      type: "constant"
      value: 0.0
    }
  }
}
layer {
  name: "res5c_branch2a_relu"
  type: "ReLU"
  bottom: "res5c_branch2a"
  top: "res5c_branch2a"
}
layer {
  name: "res5c_branch2b"
  type: "Convolution"
  bottom: "res5c_branch2a"
  top: "res5c_branch2b"
  param {
    lr_mult: 1
    decay_mult: 1
  }
  convolution_param {
    num_output: 512
    bias_term: false
    pad: 2
    kernel_size: 3
    stride: 1
    weight_filler {
      type: "gaussian"
      std: 0.01
    }
    dilation: 2
  }
}
layer {
  name: "bn5c_branch2b"
  type: "BatchNorm"
  bottom: "res5c_branch2b"
  top: "res5c_branch2b"
  param {
    lr_mult: 0
    decay_mult: 0
  }
  param {
    lr_mult: 0
    decay_mult: 0
  }
  param {
    lr_mult: 0
    decay_mult: 0
  }
  batch_norm_param {
    use_global_stats: true
    eps: 0.001
  }
}
layer {
  name: "scale5c_branch2b"
  type: "Scale"
  bottom: "res5c_branch2b"
  top: "res5c_branch2b"
  param {
    lr_mult: 0
    decay_mult: 0
  }
  param {
    lr_mult: 0
    decay_mult: 0
  }
  scale_param {
    filler {
      type: "constant"
      value: 1.0
    }
    bias_term: true
    bias_filler {
      type: "constant"
      value: 0.0
    }
  }
}
layer {
  name: "res5c_branch2b_relu"
  type: "ReLU"
  bottom: "res5c_branch2b"
  top: "res5c_branch2b"
}
layer {
  name: "res5c_branch2c"
  type: "Convolution"
  bottom: "res5c_branch2b"
  top: "res5c_branch2c"
  param {
    lr_mult: 1
    decay_mult: 1
  }
  convolution_param {
    num_output: 2048
    bias_term: false
    pad: 0
    kernel_size: 1
    stride: 1
    weight_filler {
      type: "gaussian"
      std: 0.01
    }
  }
}
layer {
  name: "bn5c_branch2c"
  type: "BatchNorm"
  bottom: "res5c_branch2c"
  top: "res5c_branch2c"
  param {
    lr_mult: 0
    decay_mult: 0
  }
  param {
    lr_mult: 0
    decay_mult: 0
  }
  param {
    lr_mult: 0
    decay_mult: 0
  }
  batch_norm_param {
    use_global_stats: true
    eps: 0.001
  }
}
layer {
  name: "scale5c_branch2c"
  type: "Scale"
  bottom: "res5c_branch2c"
  top: "res5c_branch2c"
  param {
    lr_mult: 0
    decay_mult: 0
  }
  param {
    lr_mult: 0
    decay_mult: 0
  }
  scale_param {
    filler {
      type: "constant"
      value: 1.0
    }
    bias_term: true
    bias_filler {
      type: "constant"
      value: 0.0
    }
  }
}
layer {
  name: "res5c"
  type: "Eltwise"
  bottom: "res5b"
  bottom: "res5c_branch2c"
  top: "res5c"
}
layer {
  name: "res5c_relu"
  type: "ReLU"
  bottom: "res5c"
  top: "res5c"
}
layer {
  name: "res6_branch1"
  type: "Convolution"
  bottom: "res5c"
  top: "res6_branch1"
  param {
    lr_mult: 1
    decay_mult: 1
  }
  convolution_param {
    num_output: 1024
    bias_term: false
    pad: 0
    kernel_size: 2
    stride: 2
    weight_filler {
      type: "gaussian"
      std: 0.01
    }
  }
}
layer {
  name: "bn6_branch1"
  type: "BatchNorm"
  bottom: "res6_branch1"
  top: "res6_branch1"
  param {
    lr_mult: 0
    decay_mult: 0
  }
  param {
    lr_mult: 0
    decay_mult: 0
  }
  param {
    lr_mult: 0
    decay_mult: 0
  }
  batch_norm_param {
    use_global_stats: true
    eps: 0.001
  }
}
layer {
  name: "scale6_branch1"
  type: "Scale"
  bottom: "res6_branch1"
  top: "res6_branch1"
  param {
    lr_mult: 0
    decay_mult: 0
  }
  param {
    lr_mult: 0
    decay_mult: 0
  }
  scale_param {
    filler {
      type: "constant"
      value: 1.0
    }
    bias_term: true
    bias_filler {
      type: "constant"
      value: 0.0
    }
  }
}
layer {
  name: "res6_branch2a"
  type: "Convolution"
  bottom: "res5c"
  top: "res6_branch2a"
  param {
    lr_mult: 1
    decay_mult: 1
  }
  convolution_param {
    num_output: 256
    bias_term: false
    pad: 0
    kernel_size: 2
    stride: 2
    weight_filler {
      type: "gaussian"
      std: 0.01
    }
  }
}
layer {
  name: "bn6_branch2a"
  type: "BatchNorm"
  bottom: "res6_branch2a"
  top: "res6_branch2a"
  param {
    lr_mult: 0
    decay_mult: 0
  }
  param {
    lr_mult: 0
    decay_mult: 0
  }
  param {
    lr_mult: 0
    decay_mult: 0
  }
  batch_norm_param {
    use_global_stats: true
    eps: 0.001
  }
}
layer {
  name: "scale6_branch2a"
  type: "Scale"
  bottom: "res6_branch2a"
  top: "res6_branch2a"
  param {
    lr_mult: 0
    decay_mult: 0
  }
  param {
    lr_mult: 0
    decay_mult: 0
  }
  scale_param {
    filler {
      type: "constant"
      value: 1.0
    }
    bias_term: true
    bias_filler {
      type: "constant"
      value: 0.0
    }
  }
}
layer {
  name: "res6_branch2a_relu"
  type: "ReLU"
  bottom: "res6_branch2a"
  top: "res6_branch2a"
}
layer {
  name: "res6_branch2b"
  type: "Convolution"
  bottom: "res6_branch2a"
  top: "res6_branch2b"
  param {
    lr_mult: 1
    decay_mult: 1
  }
  convolution_param {
    num_output: 256
    bias_term: false
    pad: 1
    kernel_size: 3
    stride: 1
    weight_filler {
      type: "gaussian"
      std: 0.01
    }
  }
}
layer {
  name: "bn6_branch2b"
  type: "BatchNorm"
  bottom: "res6_branch2b"
  top: "res6_branch2b"
  param {
    lr_mult: 0
    decay_mult: 0
  }
  param {
    lr_mult: 0
    decay_mult: 0
  }
  param {
    lr_mult: 0
    decay_mult: 0
  }
  batch_norm_param {
    use_global_stats: true
    eps: 0.001
  }
}
layer {
  name: "scale6_branch2b"
  type: "Scale"
  bottom: "res6_branch2b"
  top: "res6_branch2b"
  param {
    lr_mult: 0
    decay_mult: 0
  }
  param {
    lr_mult: 0
    decay_mult: 0
  }
  scale_param {
    filler {
      type: "constant"
      value: 1.0
    }
    bias_term: true
    bias_filler {
      type: "constant"
      value: 0.0
    }
  }
}
layer {
  name: "res6_branch2b_relu"
  type: "ReLU"
  bottom: "res6_branch2b"
  top: "res6_branch2b"
}
layer {
  name: "res6_branch2c"
  type: "Convolution"
  bottom: "res6_branch2b"
  top: "res6_branch2c"
  param {
    lr_mult: 1
    decay_mult: 1
  }
  convolution_param {
    num_output: 1024
    bias_term: false
    pad: 0
    kernel_size: 1
    stride: 1
    weight_filler {
      type: "gaussian"
      std: 0.01
    }
  }
}
layer {
  name: "bn6_branch2c"
  type: "BatchNorm"
  bottom: "res6_branch2c"
  top: "res6_branch2c"
  param {
    lr_mult: 0
    decay_mult: 0
  }
  param {
    lr_mult: 0
    decay_mult: 0
  }
  param {
    lr_mult: 0
    decay_mult: 0
  }
  batch_norm_param {
    use_global_stats: true
    eps: 0.001
  }
}
layer {
  name: "scale6_branch2c"
  type: "Scale"
  bottom: "res6_branch2c"
  top: "res6_branch2c"
  param {
    lr_mult: 0
    decay_mult: 0
  }
  param {
    lr_mult: 0
    decay_mult: 0
  }
  scale_param {
    filler {
      type: "constant"
      value: 1.0
    }
    bias_term: true
    bias_filler {
      type: "constant"
      value: 0.0
    }
  }
}
layer {
  name: "res6"
  type: "Eltwise"
  bottom: "res6_branch1"
  bottom: "res6_branch2c"
  top: "res6"
}
layer {
  name: "res6_relu"
  type: "ReLU"
  bottom: "res6"
  top: "res6"
}
layer {
  name: "res7_branch1"
  type: "Convolution"
  bottom: "res6"
  top: "res7_branch1"
  param {
    lr_mult: 1
    decay_mult: 1
  }
  convolution_param {
    num_output: 1024
    bias_term: false
    pad: 0
    kernel_size: 2
    stride: 2
    weight_filler {
      type: "gaussian"
      std: 0.01
    }
  }
}
layer {
  name: "bn7_branch1"
  type: "BatchNorm"
  bottom: "res7_branch1"
  top: "res7_branch1"
  param {
    lr_mult: 0
    decay_mult: 0
  }
  param {
    lr_mult: 0
    decay_mult: 0
  }
  param {
    lr_mult: 0
    decay_mult: 0
  }
  batch_norm_param {
    use_global_stats: true
    eps: 0.001
  }
}
layer {
  name: "scale7_branch1"
  type: "Scale"
  bottom: "res7_branch1"
  top: "res7_branch1"
  param {
    lr_mult: 0
    decay_mult: 0
  }
  param {
    lr_mult: 0
    decay_mult: 0
  }
  scale_param {
    filler {
      type: "constant"
      value: 1.0
    }
    bias_term: true
    bias_filler {
      type: "constant"
      value: 0.0
    }
  }
}
layer {
  name: "res7_branch2a"
  type: "Convolution"
  bottom: "res6"
  top: "res7_branch2a"
  param {
    lr_mult: 1
    decay_mult: 1
  }
  convolution_param {
    num_output: 256
    bias_term: false
    pad: 0
    kernel_size: 2
    stride: 2
    weight_filler {
      type: "gaussian"
      std: 0.01
    }
  }
}
layer {
  name: "bn7_branch2a"
  type: "BatchNorm"
  bottom: "res7_branch2a"
  top: "res7_branch2a"
  param {
    lr_mult: 0
    decay_mult: 0
  }
  param {
    lr_mult: 0
    decay_mult: 0
  }
  param {
    lr_mult: 0
    decay_mult: 0
  }
  batch_norm_param {
    use_global_stats: true
    eps: 0.001
  }
}
layer {
  name: "scale7_branch2a"
  type: "Scale"
  bottom: "res7_branch2a"
  top: "res7_branch2a"
  param {
    lr_mult: 0
    decay_mult: 0
  }
  param {
    lr_mult: 0
    decay_mult: 0
  }
  scale_param {
    filler {
      type: "constant"
      value: 1.0
    }
    bias_term: true
    bias_filler {
      type: "constant"
      value: 0.0
    }
  }
}
layer {
  name: "res7_branch2a_relu"
  type: "ReLU"
  bottom: "res7_branch2a"
  top: "res7_branch2a"
}
layer {
  name: "res7_branch2b"
  type: "Convolution"
  bottom: "res7_branch2a"
  top: "res7_branch2b"
  param {
    lr_mult: 1
    decay_mult: 1
  }
  convolution_param {
    num_output: 256
    bias_term: false
    pad: 1
    kernel_size: 3
    stride: 1
    weight_filler {
      type: "gaussian"
      std: 0.01
    }
  }
}
layer {
  name: "bn7_branch2b"
  type: "BatchNorm"
  bottom: "res7_branch2b"
  top: "res7_branch2b"
  param {
    lr_mult: 0
    decay_mult: 0
  }
  param {
    lr_mult: 0
    decay_mult: 0
  }
  param {
    lr_mult: 0
    decay_mult: 0
  }
  batch_norm_param {
    use_global_stats: true
    eps: 0.001
  }
}
layer {
  name: "scale7_branch2b"
  type: "Scale"
  bottom: "res7_branch2b"
  top: "res7_branch2b"
  param {
    lr_mult: 0
    decay_mult: 0
  }
  param {
    lr_mult: 0
    decay_mult: 0
  }
  scale_param {
    filler {
      type: "constant"
      value: 1.0
    }
    bias_term: true
    bias_filler {
      type: "constant"
      value: 0.0
    }
  }
}
layer {
  name: "res7_branch2b_relu"
  type: "ReLU"
  bottom: "res7_branch2b"
  top: "res7_branch2b"
}
layer {
  name: "res7_branch2c"
  type: "Convolution"
  bottom: "res7_branch2b"
  top: "res7_branch2c"
  param {
    lr_mult: 1
    decay_mult: 1
  }
  convolution_param {
    num_output: 1024
    bias_term: false
    pad: 0
    kernel_size: 1
    stride: 1
    weight_filler {
      type: "gaussian"
      std: 0.01
    }
  }
}
layer {
  name: "bn7_branch2c"
  type: "BatchNorm"
  bottom: "res7_branch2c"
  top: "res7_branch2c"
  param {
    lr_mult: 0
    decay_mult: 0
  }
  param {
    lr_mult: 0
    decay_mult: 0
  }
  param {
    lr_mult: 0
    decay_mult: 0
  }
  batch_norm_param {
    use_global_stats: true
    eps: 0.001
  }
}
layer {
  name: "scale7_branch2c"
  type: "Scale"
  bottom: "res7_branch2c"
  top: "res7_branch2c"
  param {
    lr_mult: 0
    decay_mult: 0
  }
  param {
    lr_mult: 0
    decay_mult: 0
  }
  scale_param {
    filler {
      type: "constant"
      value: 1.0
    }
    bias_term: true
    bias_filler {
      type: "constant"
      value: 0.0
    }
  }
}
layer {
  name: "res7"
  type: "Eltwise"
  bottom: "res7_branch1"
  bottom: "res7_branch2c"
  top: "res7"
}
layer {
  name: "res7_relu"
  type: "ReLU"
  bottom: "res7"
  top: "res7"
}
layer {
  name: "res8_branch1"
  type: "Convolution"
  bottom: "res7"
  top: "res8_branch1"
  param {
    lr_mult: 1
    decay_mult: 1
  }
  convolution_param {
    num_output: 1024
    bias_term: false
    pad: 0
    kernel_size: 2
    stride: 2
    weight_filler {
      type: "gaussian"
      std: 0.01
    }
  }
}
layer {
  name: "bn8_branch1"
  type: "BatchNorm"
  bottom: "res8_branch1"
  top: "res8_branch1"
  param {
    lr_mult: 0
    decay_mult: 0
  }
  param {
    lr_mult: 0
    decay_mult: 0
  }
  param {
    lr_mult: 0
    decay_mult: 0
  }
  batch_norm_param {
    use_global_stats: true
    eps: 0.001
  }
}
layer {
  name: "scale8_branch1"
  type: "Scale"
  bottom: "res8_branch1"
  top: "res8_branch1"
  param {
    lr_mult: 0
    decay_mult: 0
  }
  param {
    lr_mult: 0
    decay_mult: 0
  }
  scale_param {
    filler {
      type: "constant"
      value: 1.0
    }
    bias_term: true
    bias_filler {
      type: "constant"
      value: 0.0
    }
  }
}
layer {
  name: "res8_branch2a"
  type: "Convolution"
  bottom: "res7"
  top: "res8_branch2a"
  param {
    lr_mult: 1
    decay_mult: 1
  }
  convolution_param {
    num_output: 256
    bias_term: false
    pad: 0
    kernel_size: 2
    stride: 2
    weight_filler {
      type: "gaussian"
      std: 0.01
    }
  }
}
layer {
  name: "bn8_branch2a"
  type: "BatchNorm"
  bottom: "res8_branch2a"
  top: "res8_branch2a"
  param {
    lr_mult: 0
    decay_mult: 0
  }
  param {
    lr_mult: 0
    decay_mult: 0
  }
  param {
    lr_mult: 0
    decay_mult: 0
  }
  batch_norm_param {
    use_global_stats: true
    eps: 0.001
  }
}
layer {
  name: "scale8_branch2a"
  type: "Scale"
  bottom: "res8_branch2a"
  top: "res8_branch2a"
  param {
    lr_mult: 0
    decay_mult: 0
  }
  param {
    lr_mult: 0
    decay_mult: 0
  }
  scale_param {
    filler {
      type: "constant"
      value: 1.0
    }
    bias_term: true
    bias_filler {
      type: "constant"
      value: 0.0
    }
  }
}
layer {
  name: "res8_branch2a_relu"
  type: "ReLU"
  bottom: "res8_branch2a"
  top: "res8_branch2a"
}
layer {
  name: "res8_branch2b"
  type: "Convolution"
  bottom: "res8_branch2a"
  top: "res8_branch2b"
  param {
    lr_mult: 1
    decay_mult: 1
  }
  convolution_param {
    num_output: 256
    bias_term: false
    pad: 1
    kernel_size: 3
    stride: 1
    weight_filler {
      type: "gaussian"
      std: 0.01
    }
  }
}
layer {
  name: "bn8_branch2b"
  type: "BatchNorm"
  bottom: "res8_branch2b"
  top: "res8_branch2b"
  param {
    lr_mult: 0
    decay_mult: 0
  }
  param {
    lr_mult: 0
    decay_mult: 0
  }
  param {
    lr_mult: 0
    decay_mult: 0
  }
  batch_norm_param {
    use_global_stats: true
    eps: 0.001
  }
}
layer {
  name: "scale8_branch2b"
  type: "Scale"
  bottom: "res8_branch2b"
  top: "res8_branch2b"
  param {
    lr_mult: 0
    decay_mult: 0
  }
  param {
    lr_mult: 0
    decay_mult: 0
  }
  scale_param {
    filler {
      type: "constant"
      value: 1.0
    }
    bias_term: true
    bias_filler {
      type: "constant"
      value: 0.0
    }
  }
}
layer {
  name: "res8_branch2b_relu"
  type: "ReLU"
  bottom: "res8_branch2b"
  top: "res8_branch2b"
}
layer {
  name: "res8_branch2c"
  type: "Convolution"
  bottom: "res8_branch2b"
  top: "res8_branch2c"
  param {
    lr_mult: 1
    decay_mult: 1
  }
  convolution_param {
    num_output: 1024
    bias_term: false
    pad: 0
    kernel_size: 1
    stride: 1
    weight_filler {
      type: "gaussian"
      std: 0.01
    }
  }
}
layer {
  name: "bn8_branch2c"
  type: "BatchNorm"
  bottom: "res8_branch2c"
  top: "res8_branch2c"
  param {
    lr_mult: 0
    decay_mult: 0
  }
  param {
    lr_mult: 0
    decay_mult: 0
  }
  param {
    lr_mult: 0
    decay_mult: 0
  }
  batch_norm_param {
    use_global_stats: true
    eps: 0.001
  }
}
layer {
  name: "scale8_branch2c"
  type: "Scale"
  bottom: "res8_branch2c"
  top: "res8_branch2c"
  param {
    lr_mult: 0
    decay_mult: 0
  }
  param {
    lr_mult: 0
    decay_mult: 0
  }
  scale_param {
    filler {
      type: "constant"
      value: 1.0
    }
    bias_term: true
    bias_filler {
      type: "constant"
      value: 0.0
    }
  }
}
layer {
  name: "res8"
  type: "Eltwise"
  bottom: "res8_branch1"
  bottom: "res8_branch2c"
  top: "res8"
}
layer {
  name: "res8_relu"
  type: "ReLU"
  bottom: "res8"
  top: "res8"
}
layer {
  name: "res9_branch1"
  type: "Convolution"
  bottom: "res8"
  top: "res9_branch1"
  param {
    lr_mult: 1
    decay_mult: 1
  }
  convolution_param {
    num_output: 1024
    bias_term: false
    pad: 0
    kernel_size: 2
    stride: 2
    weight_filler {
      type: "gaussian"
      std: 0.01
    }
  }
}
layer {
  name: "bn9_branch1"
  type: "BatchNorm"
  bottom: "res9_branch1"
  top: "res9_branch1"
  param {
    lr_mult: 0
    decay_mult: 0
  }
  param {
    lr_mult: 0
    decay_mult: 0
  }
  param {
    lr_mult: 0
    decay_mult: 0
  }
  batch_norm_param {
    use_global_stats: true
    eps: 0.001
  }
}
layer {
  name: "scale9_branch1"
  type: "Scale"
  bottom: "res9_branch1"
  top: "res9_branch1"
  param {
    lr_mult: 0
    decay_mult: 0
  }
  param {
    lr_mult: 0
    decay_mult: 0
  }
  scale_param {
    filler {
      type: "constant"
      value: 1.0
    }
    bias_term: true
    bias_filler {
      type: "constant"
      value: 0.0
    }
  }
}
layer {
  name: "res9_branch2a"
  type: "Convolution"
  bottom: "res8"
  top: "res9_branch2a"
  param {
    lr_mult: 1
    decay_mult: 1
  }
  convolution_param {
    num_output: 256
    bias_term: false
    pad: 0
    kernel_size: 2
    stride: 2
    weight_filler {
      type: "gaussian"
      std: 0.01
    }
  }
}
layer {
  name: "bn9_branch2a"
  type: "BatchNorm"
  bottom: "res9_branch2a"
  top: "res9_branch2a"
  param {
    lr_mult: 0
    decay_mult: 0
  }
  param {
    lr_mult: 0
    decay_mult: 0
  }
  param {
    lr_mult: 0
    decay_mult: 0
  }
  batch_norm_param {
    use_global_stats: true
    eps: 0.001
  }
}
layer {
  name: "scale9_branch2a"
  type: "Scale"
  bottom: "res9_branch2a"
  top: "res9_branch2a"
  param {
    lr_mult: 0
    decay_mult: 0
  }
  param {
    lr_mult: 0
    decay_mult: 0
  }
  scale_param {
    filler {
      type: "constant"
      value: 1.0
    }
    bias_term: true
    bias_filler {
      type: "constant"
      value: 0.0
    }
  }
}
layer {
  name: "res9_branch2a_relu"
  type: "ReLU"
  bottom: "res9_branch2a"
  top: "res9_branch2a"
}
layer {
  name: "res9_branch2b"
  type: "Convolution"
  bottom: "res9_branch2a"
  top: "res9_branch2b"
  param {
    lr_mult: 1
    decay_mult: 1
  }
  convolution_param {
    num_output: 256
    bias_term: false
    pad: 1
    kernel_size: 3
    stride: 1
    weight_filler {
      type: "gaussian"
      std: 0.01
    }
  }
}
layer {
  name: "bn9_branch2b"
  type: "BatchNorm"
  bottom: "res9_branch2b"
  top: "res9_branch2b"
  param {
    lr_mult: 0
    decay_mult: 0
  }
  param {
    lr_mult: 0
    decay_mult: 0
  }
  param {
    lr_mult: 0
    decay_mult: 0
  }
  batch_norm_param {
    use_global_stats: true
    eps: 0.001
  }
}
layer {
  name: "scale9_branch2b"
  type: "Scale"
  bottom: "res9_branch2b"
  top: "res9_branch2b"
  param {
    lr_mult: 0
    decay_mult: 0
  }
  param {
    lr_mult: 0
    decay_mult: 0
  }
  scale_param {
    filler {
      type: "constant"
      value: 1.0
    }
    bias_term: true
    bias_filler {
      type: "constant"
      value: 0.0
    }
  }
}
layer {
  name: "res9_branch2b_relu"
  type: "ReLU"
  bottom: "res9_branch2b"
  top: "res9_branch2b"
}
layer {
  name: "res9_branch2c"
  type: "Convolution"
  bottom: "res9_branch2b"
  top: "res9_branch2c"
  param {
    lr_mult: 1
    decay_mult: 1
  }
  convolution_param {
    num_output: 1024
    bias_term: false
    pad: 0
    kernel_size: 1
    stride: 1
    weight_filler {
      type: "gaussian"
      std: 0.01
    }
  }
}
layer {
  name: "bn9_branch2c"
  type: "BatchNorm"
  bottom: "res9_branch2c"
  top: "res9_branch2c"
  param {
    lr_mult: 0
    decay_mult: 0
  }
  param {
    lr_mult: 0
    decay_mult: 0
  }
  param {
    lr_mult: 0
    decay_mult: 0
  }
  batch_norm_param {
    use_global_stats: true
    eps: 0.001
  }
}
layer {
  name: "scale9_branch2c"
  type: "Scale"
  bottom: "res9_branch2c"
  top: "res9_branch2c"
  param {
    lr_mult: 0
    decay_mult: 0
  }
  param {
    lr_mult: 0
    decay_mult: 0
  }
  scale_param {
    filler {
      type: "constant"
      value: 1.0
    }
    bias_term: true
    bias_filler {
      type: "constant"
      value: 0.0
    }
  }
}
layer {
  name: "res9"
  type: "Eltwise"
  bottom: "res9_branch1"
  bottom: "res9_branch2c"
  top: "res9"
}
layer {
  name: "res9_relu"
  type: "ReLU"
  bottom: "res9"
  top: "res9"
}
layer {
  name: "res10_branch1"
  type: "Convolution"
  bottom: "res9"
  top: "res10_branch1"
  param {
    lr_mult: 1
    decay_mult: 1
  }
  convolution_param {
    num_output: 1024
    bias_term: false
    pad: 0
    kernel_size: 2
    stride: 2
    weight_filler {
      type: "gaussian"
      std: 0.01
    }
  }
}
layer {
  name: "bn10_branch1"
  type: "BatchNorm"
  bottom: "res10_branch1"
  top: "res10_branch1"
  param {
    lr_mult: 0
    decay_mult: 0
  }
  param {
    lr_mult: 0
    decay_mult: 0
  }
  param {
    lr_mult: 0
    decay_mult: 0
  }
  batch_norm_param {
    use_global_stats: true
    eps: 0.001
  }
}
layer {
  name: "scale10_branch1"
  type: "Scale"
  bottom: "res10_branch1"
  top: "res10_branch1"
  param {
    lr_mult: 0
    decay_mult: 0
  }
  param {
    lr_mult: 0
    decay_mult: 0
  }
  scale_param {
    filler {
      type: "constant"
      value: 1.0
    }
    bias_term: true
    bias_filler {
      type: "constant"
      value: 0.0
    }
  }
}
layer {
  name: "res10_branch2a"
  type: "Convolution"
  bottom: "res9"
  top: "res10_branch2a"
  param {
    lr_mult: 1
    decay_mult: 1
  }
  convolution_param {
    num_output: 256
    bias_term: false
    pad: 0
    kernel_size: 2
    stride: 2
    weight_filler {
      type: "gaussian"
      std: 0.01
    }
  }
}
layer {
  name: "bn10_branch2a"
  type: "BatchNorm"
  bottom: "res10_branch2a"
  top: "res10_branch2a"
  param {
    lr_mult: 0
    decay_mult: 0
  }
  param {
    lr_mult: 0
    decay_mult: 0
  }
  param {
    lr_mult: 0
    decay_mult: 0
  }
  batch_norm_param {
    use_global_stats: true
    eps: 0.001
  }
}
layer {
  name: "scale10_branch2a"
  type: "Scale"
  bottom: "res10_branch2a"
  top: "res10_branch2a"
  param {
    lr_mult: 0
    decay_mult: 0
  }
  param {
    lr_mult: 0
    decay_mult: 0
  }
  scale_param {
    filler {
      type: "constant"
      value: 1.0
    }
    bias_term: true
    bias_filler {
      type: "constant"
      value: 0.0
    }
  }
}
layer {
  name: "res10_branch2a_relu"
  type: "ReLU"
  bottom: "res10_branch2a"
  top: "res10_branch2a"
}
layer {
  name: "res10_branch2b"
  type: "Convolution"
  bottom: "res10_branch2a"
  top: "res10_branch2b"
  param {
    lr_mult: 1
    decay_mult: 1
  }
  convolution_param {
    num_output: 256
    bias_term: false
    pad: 1
    kernel_size: 3
    stride: 1
    weight_filler {
      type: "gaussian"
      std: 0.01
    }
  }
}
layer {
  name: "bn10_branch2b"
  type: "BatchNorm"
  bottom: "res10_branch2b"
  top: "res10_branch2b"
  param {
    lr_mult: 0
    decay_mult: 0
  }
  param {
    lr_mult: 0
    decay_mult: 0
  }
  param {
    lr_mult: 0
    decay_mult: 0
  }
  batch_norm_param {
    use_global_stats: true
    eps: 0.001
  }
}
layer {
  name: "scale10_branch2b"
  type: "Scale"
  bottom: "res10_branch2b"
  top: "res10_branch2b"
  param {
    lr_mult: 0
    decay_mult: 0
  }
  param {
    lr_mult: 0
    decay_mult: 0
  }
  scale_param {
    filler {
      type: "constant"
      value: 1.0
    }
    bias_term: true
    bias_filler {
      type: "constant"
      value: 0.0
    }
  }
}
layer {
  name: "res10_branch2b_relu"
  type: "ReLU"
  bottom: "res10_branch2b"
  top: "res10_branch2b"
}
layer {
  name: "res10_branch2c"
  type: "Convolution"
  bottom: "res10_branch2b"
  top: "res10_branch2c"
  param {
    lr_mult: 1
    decay_mult: 1
  }
  convolution_param {
    num_output: 1024
    bias_term: false
    pad: 0
    kernel_size: 1
    stride: 1
    weight_filler {
      type: "gaussian"
      std: 0.01
    }
  }
}
layer {
  name: "bn10_branch2c"
  type: "BatchNorm"
  bottom: "res10_branch2c"
  top: "res10_branch2c"
  param {
    lr_mult: 0
    decay_mult: 0
  }
  param {
    lr_mult: 0
    decay_mult: 0
  }
  param {
    lr_mult: 0
    decay_mult: 0
  }
  batch_norm_param {
    use_global_stats: true
    eps: 0.001
  }
}
layer {
  name: "scale10_branch2c"
  type: "Scale"
  bottom: "res10_branch2c"
  top: "res10_branch2c"
  param {
    lr_mult: 0
    decay_mult: 0
  }
  param {
    lr_mult: 0
    decay_mult: 0
  }
  scale_param {
    filler {
      type: "constant"
      value: 1.0
    }
    bias_term: true
    bias_filler {
      type: "constant"
      value: 0.0
    }
  }
}
layer {
  name: "res10"
  type: "Eltwise"
  bottom: "res10_branch1"
  bottom: "res10_branch2c"
  top: "res10"
}
layer {
  name: "res10_relu"
  type: "ReLU"
  bottom: "res10"
  top: "res10"
}
layer {
  name: "deconv_9"
  type: "Deconvolution"
  bottom: "res10"
  top: "deconv_9"
  param {
    lr_mult: 1
    decay_mult: 1
  }
  param {
    lr_mult: 2
    decay_mult: 0
  }
  convolution_param {
    num_output: 512
    pad: 0
    kernel_size: 2
    stride: 1
    weight_filler {
      type: "xavier"
    }
    bias_filler {
      type: "constant"
      value: 0
    }
    dilation: 1
  }
}
layer {
  name: "res9_relu_pre1"
  type: "Convolution"
  bottom: "res9"
  top: "res9_relu_pre1"
  param {
    lr_mult: 1
    decay_mult: 1
  }
  convolution_param {
    num_output: 512
    bias_term: false
    pad: 1
    kernel_size: 3
    stride: 1
    weight_filler {
      type: "gaussian"
      std: 0.01
    }
  }
}
layer {
  name: "res9_relu_pre1_bn"
  type: "BatchNorm"
  bottom: "res9_relu_pre1"
  top: "res9_relu_pre1"
  param {
    lr_mult: 0
    decay_mult: 0
  }
  param {
    lr_mult: 0
    decay_mult: 0
  }
  param {
    lr_mult: 0
    decay_mult: 0
  }
  batch_norm_param {
    moving_average_fraction: 0.999
    eps: 0.001
  }
}
layer {
  name: "res9_relu_pre1_scale"
  type: "Scale"
  bottom: "res9_relu_pre1"
  top: "res9_relu_pre1"
  param {
    lr_mult: 1
    decay_mult: 0
  }
  param {
    lr_mult: 1
    decay_mult: 0
  }
  scale_param {
    filler {
      type: "constant"
      value: 1.0
    }
    bias_term: true
    bias_filler {
      type: "constant"
      value: 0.0
    }
  }
}
layer {
  name: "res9_relu_pre1_relu"
  type: "ReLU"
  bottom: "res9_relu_pre1"
  top: "res9_relu_pre1"
}
layer {
  name: "res9_relu_pre2"
  type: "Convolution"
  bottom: "res9_relu_pre1"
  top: "res9_relu_pre2"
  param {
    lr_mult: 1
    decay_mult: 1
  }
  convolution_param {
    num_output: 512
    bias_term: false
    pad: 1
    kernel_size: 3
    stride: 1
    weight_filler {
      type: "gaussian"
      std: 0.01
    }
  }
}
layer {
  name: "res9_relu_pre2_bn"
  type: "BatchNorm"
  bottom: "res9_relu_pre2"
  top: "res9_relu_pre2"
  param {
    lr_mult: 0
    decay_mult: 0
  }
  param {
    lr_mult: 0
    decay_mult: 0
  }
  param {
    lr_mult: 0
    decay_mult: 0
  }
  batch_norm_param {
    moving_average_fraction: 0.999
    eps: 0.001
  }
}
layer {
  name: "res9_relu_pre2_scale"
  type: "Scale"
  bottom: "res9_relu_pre2"
  top: "res9_relu_pre2"
  param {
    lr_mult: 1
    decay_mult: 0
  }
  param {
    lr_mult: 1
    decay_mult: 0
  }
  scale_param {
    filler {
      type: "constant"
      value: 1.0
    }
    bias_term: true
    bias_filler {
      type: "constant"
      value: 0.0
    }
  }
}
layer {
  name: "deconv_9_pre"
  type: "Convolution"
  bottom: "deconv_9"
  top: "deconv_9_pre"
  param {
    lr_mult: 1
    decay_mult: 1
  }
  convolution_param {
    num_output: 512
    bias_term: false
    pad: 1
    kernel_size: 3
    stride: 1
    weight_filler {
      type: "gaussian"
      std: 0.01
    }
  }
}
layer {
  name: "deconv_9_pre_bn"
  type: "BatchNorm"
  bottom: "deconv_9_pre"
  top: "deconv_9_pre"
  param {
    lr_mult: 0
    decay_mult: 0
  }
  param {
    lr_mult: 0
    decay_mult: 0
  }
  param {
    lr_mult: 0
    decay_mult: 0
  }
  batch_norm_param {
    moving_average_fraction: 0.999
    eps: 0.001
  }
}
layer {
  name: "deconv_9_pre_scale"
  type: "Scale"
  bottom: "deconv_9_pre"
  top: "deconv_9_pre"
  param {
    lr_mult: 1
    decay_mult: 0
  }
  param {
    lr_mult: 1
    decay_mult: 0
  }
  scale_param {
    filler {
      type: "constant"
      value: 1.0
    }
    bias_term: true
    bias_filler {
      type: "constant"
      value: 0.0
    }
  }
}
layer {
  name: "combined_9_EltwisePROD"
  type: "Eltwise"
  bottom: "deconv_9_pre"
  bottom: "res9_relu_pre2"
  top: "combined_9_EltwisePROD"
  eltwise_param {
    operation: PROD
  }
}
layer {
  name: "combined_9_EltwisePROD_relu"
  type: "ReLU"
  bottom: "combined_9_EltwisePROD"
  top: "combined_9_EltwisePROD_relu"
}
layer {
  name: "deconv_8"
  type: "Deconvolution"
  bottom: "combined_9_EltwisePROD_relu"
  top: "deconv_8"
  param {
    lr_mult: 1
    decay_mult: 1
  }
  param {
    lr_mult: 2
    decay_mult: 0
  }
  convolution_param {
    num_output: 512
    pad: 0
    kernel_size: 2
    stride: 2
    weight_filler {
      type: "xavier"
    }
    bias_filler {
      type: "constant"
      value: 0
    }
    dilation: 1
  }
}
layer {
  name: "res8_relu_pre1"
  type: "Convolution"
  bottom: "res8"
  top: "res8_relu_pre1"
  param {
    lr_mult: 1
    decay_mult: 1
  }
  convolution_param {
    num_output: 512
    bias_term: false
    pad: 1
    kernel_size: 3
    stride: 1
    weight_filler {
      type: "gaussian"
      std: 0.01
    }
  }
}
layer {
  name: "res8_relu_pre1_bn"
  type: "BatchNorm"
  bottom: "res8_relu_pre1"
  top: "res8_relu_pre1"
  param {
    lr_mult: 0
    decay_mult: 0
  }
  param {
    lr_mult: 0
    decay_mult: 0
  }
  param {
    lr_mult: 0
    decay_mult: 0
  }
  batch_norm_param {
    moving_average_fraction: 0.999
    eps: 0.001
  }
}
layer {
  name: "res8_relu_pre1_scale"
  type: "Scale"
  bottom: "res8_relu_pre1"
  top: "res8_relu_pre1"
  param {
    lr_mult: 1
    decay_mult: 0
  }
  param {
    lr_mult: 1
    decay_mult: 0
  }
  scale_param {
    filler {
      type: "constant"
      value: 1.0
    }
    bias_term: true
    bias_filler {
      type: "constant"
      value: 0.0
    }
  }
}
layer {
  name: "res8_relu_pre1_relu"
  type: "ReLU"
  bottom: "res8_relu_pre1"
  top: "res8_relu_pre1"
}
layer {
  name: "res8_relu_pre2"
  type: "Convolution"
  bottom: "res8_relu_pre1"
  top: "res8_relu_pre2"
  param {
    lr_mult: 1
    decay_mult: 1
  }
  convolution_param {
    num_output: 512
    bias_term: false
    pad: 1
    kernel_size: 3
    stride: 1
    weight_filler {
      type: "gaussian"
      std: 0.01
    }
  }
}
layer {
  name: "res8_relu_pre2_bn"
  type: "BatchNorm"
  bottom: "res8_relu_pre2"
  top: "res8_relu_pre2"
  param {
    lr_mult: 0
    decay_mult: 0
  }
  param {
    lr_mult: 0
    decay_mult: 0
  }
  param {
    lr_mult: 0
    decay_mult: 0
  }
  batch_norm_param {
    moving_average_fraction: 0.999
    eps: 0.001
  }
}
layer {
  name: "res8_relu_pre2_scale"
  type: "Scale"
  bottom: "res8_relu_pre2"
  top: "res8_relu_pre2"
  param {
    lr_mult: 1
    decay_mult: 0
  }
  param {
    lr_mult: 1
    decay_mult: 0
  }
  scale_param {
    filler {
      type: "constant"
      value: 1.0
    }
    bias_term: true
    bias_filler {
      type: "constant"
      value: 0.0
    }
  }
}
layer {
  name: "deconv_8_pre"
  type: "Convolution"
  bottom: "deconv_8"
  top: "deconv_8_pre"
  param {
    lr_mult: 1
    decay_mult: 1
  }
  convolution_param {
    num_output: 512
    bias_term: false
    pad: 1
    kernel_size: 3
    stride: 1
    weight_filler {
      type: "gaussian"
      std: 0.01
    }
  }
}
layer {
  name: "deconv_8_pre_bn"
  type: "BatchNorm"
  bottom: "deconv_8_pre"
  top: "deconv_8_pre"
  param {
    lr_mult: 0
    decay_mult: 0
  }
  param {
    lr_mult: 0
    decay_mult: 0
  }
  param {
    lr_mult: 0
    decay_mult: 0
  }
  batch_norm_param {
    moving_average_fraction: 0.999
    eps: 0.001
  }
}
layer {
  name: "deconv_8_pre_scale"
  type: "Scale"
  bottom: "deconv_8_pre"
  top: "deconv_8_pre"
  param {
    lr_mult: 1
    decay_mult: 0
  }
  param {
    lr_mult: 1
    decay_mult: 0
  }
  scale_param {
    filler {
      type: "constant"
      value: 1.0
    }
    bias_term: true
    bias_filler {
      type: "constant"
      value: 0.0
    }
  }
}
layer {
  name: "combined_8_EltwisePROD"
  type: "Eltwise"
  bottom: "deconv_8_pre"
  bottom: "res8_relu_pre2"
  top: "combined_8_EltwisePROD"
  eltwise_param {
    operation: PROD
  }
}
layer {
  name: "combined_8_EltwisePROD_relu"
  type: "ReLU"
  bottom: "combined_8_EltwisePROD"
  top: "combined_8_EltwisePROD_relu"
}
layer {
  name: "deconv_7"
  type: "Deconvolution"
  bottom: "combined_8_EltwisePROD_relu"
  top: "deconv_7"
  param {
    lr_mult: 1
    decay_mult: 1
  }
  param {
    lr_mult: 2
    decay_mult: 0
  }
  convolution_param {
    num_output: 512
    pad: 0
    kernel_size: 2
    stride: 2
    weight_filler {
      type: "xavier"
    }
    bias_filler {
      type: "constant"
      value: 0
    }
    dilation: 1
  }
}
layer {
  name: "res7_relu_pre1"
  type: "Convolution"
  bottom: "res7"
  top: "res7_relu_pre1"
  param {
    lr_mult: 1
    decay_mult: 1
  }
  convolution_param {
    num_output: 512
    bias_term: false
    pad: 1
    kernel_size: 3
    stride: 1
    weight_filler {
      type: "gaussian"
      std: 0.01
    }
  }
}
layer {
  name: "res7_relu_pre1_bn"
  type: "BatchNorm"
  bottom: "res7_relu_pre1"
  top: "res7_relu_pre1"
  param {
    lr_mult: 0
    decay_mult: 0
  }
  param {
    lr_mult: 0
    decay_mult: 0
  }
  param {
    lr_mult: 0
    decay_mult: 0
  }
  batch_norm_param {
    moving_average_fraction: 0.999
    eps: 0.001
  }
}
layer {
  name: "res7_relu_pre1_scale"
  type: "Scale"
  bottom: "res7_relu_pre1"
  top: "res7_relu_pre1"
  param {
    lr_mult: 1
    decay_mult: 0
  }
  param {
    lr_mult: 1
    decay_mult: 0
  }
  scale_param {
    filler {
      type: "constant"
      value: 1.0
    }
    bias_term: true
    bias_filler {
      type: "constant"
      value: 0.0
    }
  }
}
layer {
  name: "res7_relu_pre1_relu"
  type: "ReLU"
  bottom: "res7_relu_pre1"
  top: "res7_relu_pre1"
}
layer {
  name: "res7_relu_pre2"
  type: "Convolution"
  bottom: "res7_relu_pre1"
  top: "res7_relu_pre2"
  param {
    lr_mult: 1
    decay_mult: 1
  }
  convolution_param {
    num_output: 512
    bias_term: false
    pad: 1
    kernel_size: 3
    stride: 1
    weight_filler {
      type: "gaussian"
      std: 0.01
    }
  }
}
layer {
  name: "res7_relu_pre2_bn"
  type: "BatchNorm"
  bottom: "res7_relu_pre2"
  top: "res7_relu_pre2"
  param {
    lr_mult: 0
    decay_mult: 0
  }
  param {
    lr_mult: 0
    decay_mult: 0
  }
  param {
    lr_mult: 0
    decay_mult: 0
  }
  batch_norm_param {
    moving_average_fraction: 0.999
    eps: 0.001
  }
}
layer {
  name: "res7_relu_pre2_scale"
  type: "Scale"
  bottom: "res7_relu_pre2"
  top: "res7_relu_pre2"
  param {
    lr_mult: 1
    decay_mult: 0
  }
  param {
    lr_mult: 1
    decay_mult: 0
  }
  scale_param {
    filler {
      type: "constant"
      value: 1.0
    }
    bias_term: true
    bias_filler {
      type: "constant"
      value: 0.0
    }
  }
}
layer {
  name: "deconv_7_pre"
  type: "Convolution"
  bottom: "deconv_7"
  top: "deconv_7_pre"
  param {
    lr_mult: 1
    decay_mult: 1
  }
  convolution_param {
    num_output: 512
    bias_term: false
    pad: 1
    kernel_size: 3
    stride: 1
    weight_filler {
      type: "gaussian"
      std: 0.01
    }
  }
}
layer {
  name: "deconv_7_pre_bn"
  type: "BatchNorm"
  bottom: "deconv_7_pre"
  top: "deconv_7_pre"
  param {
    lr_mult: 0
    decay_mult: 0
  }
  param {
    lr_mult: 0
    decay_mult: 0
  }
  param {
    lr_mult: 0
    decay_mult: 0
  }
  batch_norm_param {
    moving_average_fraction: 0.999
    eps: 0.001
  }
}
layer {
  name: "deconv_7_pre_scale"
  type: "Scale"
  bottom: "deconv_7_pre"
  top: "deconv_7_pre"
  param {
    lr_mult: 1
    decay_mult: 0
  }
  param {
    lr_mult: 1
    decay_mult: 0
  }
  scale_param {
    filler {
      type: "constant"
      value: 1.0
    }
    bias_term: true
    bias_filler {
      type: "constant"
      value: 0.0
    }
  }
}
layer {
  name: "combined_7_EltwisePROD"
  type: "Eltwise"
  bottom: "deconv_7_pre"
  bottom: "res7_relu_pre2"
  top: "combined_7_EltwisePROD"
  eltwise_param {
    operation: PROD
  }
}
layer {
  name: "combined_7_EltwisePROD_relu"
  type: "ReLU"
  bottom: "combined_7_EltwisePROD"
  top: "combined_7_EltwisePROD_relu"
}
layer {
  name: "deconv_6"
  type: "Deconvolution"
  bottom: "combined_7_EltwisePROD_relu"
  top: "deconv_6"
  param {
    lr_mult: 1
    decay_mult: 1
  }
  param {
    lr_mult: 2
    decay_mult: 0
  }
  convolution_param {
    num_output: 512
    pad: 0
    kernel_size: 2
    stride: 2
    weight_filler {
      type: "xavier"
    }
    bias_filler {
      type: "constant"
      value: 0
    }
    dilation: 1
  }
}
layer {
  name: "res6_relu_pre1"
  type: "Convolution"
  bottom: "res6"
  top: "res6_relu_pre1"
  param {
    lr_mult: 1
    decay_mult: 1
  }
  convolution_param {
    num_output: 512
    bias_term: false
    pad: 1
    kernel_size: 3
    stride: 1
    weight_filler {
      type: "gaussian"
      std: 0.01
    }
  }
}
layer {
  name: "res6_relu_pre1_bn"
  type: "BatchNorm"
  bottom: "res6_relu_pre1"
  top: "res6_relu_pre1"
  param {
    lr_mult: 0
    decay_mult: 0
  }
  param {
    lr_mult: 0
    decay_mult: 0
  }
  param {
    lr_mult: 0
    decay_mult: 0
  }
  batch_norm_param {
    moving_average_fraction: 0.999
    eps: 0.001
  }
}
layer {
  name: "res6_relu_pre1_scale"
  type: "Scale"
  bottom: "res6_relu_pre1"
  top: "res6_relu_pre1"
  param {
    lr_mult: 1
    decay_mult: 0
  }
  param {
    lr_mult: 1
    decay_mult: 0
  }
  scale_param {
    filler {
      type: "constant"
      value: 1.0
    }
    bias_term: true
    bias_filler {
      type: "constant"
      value: 0.0
    }
  }
}
layer {
  name: "res6_relu_pre1_relu"
  type: "ReLU"
  bottom: "res6_relu_pre1"
  top: "res6_relu_pre1"
}
layer {
  name: "res6_relu_pre2"
  type: "Convolution"
  bottom: "res6_relu_pre1"
  top: "res6_relu_pre2"
  param {
    lr_mult: 1
    decay_mult: 1
  }
  convolution_param {
    num_output: 512
    bias_term: false
    pad: 1
    kernel_size: 3
    stride: 1
    weight_filler {
      type: "gaussian"
      std: 0.01
    }
  }
}
layer {
  name: "res6_relu_pre2_bn"
  type: "BatchNorm"
  bottom: "res6_relu_pre2"
  top: "res6_relu_pre2"
  param {
    lr_mult: 0
    decay_mult: 0
  }
  param {
    lr_mult: 0
    decay_mult: 0
  }
  param {
    lr_mult: 0
    decay_mult: 0
  }
  batch_norm_param {
    moving_average_fraction: 0.999
    eps: 0.001
  }
}
layer {
  name: "res6_relu_pre2_scale"
  type: "Scale"
  bottom: "res6_relu_pre2"
  top: "res6_relu_pre2"
  param {
    lr_mult: 1
    decay_mult: 0
  }
  param {
    lr_mult: 1
    decay_mult: 0
  }
  scale_param {
    filler {
      type: "constant"
      value: 1.0
    }
    bias_term: true
    bias_filler {
      type: "constant"
      value: 0.0
    }
  }
}
layer {
  name: "deconv_6_pre"
  type: "Convolution"
  bottom: "deconv_6"
  top: "deconv_6_pre"
  param {
    lr_mult: 1
    decay_mult: 1
  }
  convolution_param {
    num_output: 512
    bias_term: false
    pad: 1
    kernel_size: 3
    stride: 1
    weight_filler {
      type: "gaussian"
      std: 0.01
    }
  }
}
layer {
  name: "deconv_6_pre_bn"
  type: "BatchNorm"
  bottom: "deconv_6_pre"
  top: "deconv_6_pre"
  param {
    lr_mult: 0
    decay_mult: 0
  }
  param {
    lr_mult: 0
    decay_mult: 0
  }
  param {
    lr_mult: 0
    decay_mult: 0
  }
  batch_norm_param {
    moving_average_fraction: 0.999
    eps: 0.001
  }
}
layer {
  name: "deconv_6_pre_scale"
  type: "Scale"
  bottom: "deconv_6_pre"
  top: "deconv_6_pre"
  param {
    lr_mult: 1
    decay_mult: 0
  }
  param {
    lr_mult: 1
    decay_mult: 0
  }
  scale_param {
    filler {
      type: "constant"
      value: 1.0
    }
    bias_term: true
    bias_filler {
      type: "constant"
      value: 0.0
    }
  }
}
layer {
  name: "combined_6_EltwisePROD"
  type: "Eltwise"
  bottom: "deconv_6_pre"
  bottom: "res6_relu_pre2"
  top: "combined_6_EltwisePROD"
  eltwise_param {
    operation: PROD
  }
}
layer {
  name: "combined_6_EltwisePROD_relu"
  type: "ReLU"
  bottom: "combined_6_EltwisePROD"
  top: "combined_6_EltwisePROD_relu"
}
layer {
  name: "deconv_5"
  type: "Deconvolution"
  bottom: "combined_6_EltwisePROD_relu"
  top: "deconv_5"
  param {
    lr_mult: 1
    decay_mult: 1
  }
  param {
    lr_mult: 2
    decay_mult: 0
  }
  convolution_param {
    num_output: 512
    pad: 0
    kernel_size: 2
    stride: 2
    weight_filler {
      type: "xavier"
    }
    bias_filler {
      type: "constant"
      value: 0
    }
    dilation: 1
  }
}
layer {
  name: "res5c_relu_pre1"
  type: "Convolution"
  bottom: "res5c"
  top: "res5c_relu_pre1"
  param {
    lr_mult: 1
    decay_mult: 1
  }
  convolution_param {
    num_output: 512
    bias_term: false
    pad: 1
    kernel_size: 3
    stride: 1
    weight_filler {
      type: "gaussian"
      std: 0.01
    }
  }
}
layer {
  name: "res5c_relu_pre1_bn"
  type: "BatchNorm"
  bottom: "res5c_relu_pre1"
  top: "res5c_relu_pre1"
  param {
    lr_mult: 0
    decay_mult: 0
  }
  param {
    lr_mult: 0
    decay_mult: 0
  }
  param {
    lr_mult: 0
    decay_mult: 0
  }
  batch_norm_param {
    moving_average_fraction: 0.999
    eps: 0.001
  }
}
layer {
  name: "res5c_relu_pre1_scale"
  type: "Scale"
  bottom: "res5c_relu_pre1"
  top: "res5c_relu_pre1"
  param {
    lr_mult: 1
    decay_mult: 0
  }
  param {
    lr_mult: 1
    decay_mult: 0
  }
  scale_param {
    filler {
      type: "constant"
      value: 1.0
    }
    bias_term: true
    bias_filler {
      type: "constant"
      value: 0.0
    }
  }
}
layer {
  name: "res5c_relu_pre1_relu"
  type: "ReLU"
  bottom: "res5c_relu_pre1"
  top: "res5c_relu_pre1"
}
layer {
  name: "res5c_relu_pre2"
  type: "Convolution"
  bottom: "res5c_relu_pre1"
  top: "res5c_relu_pre2"
  param {
    lr_mult: 1
    decay_mult: 1
  }
  convolution_param {
    num_output: 512
    bias_term: false
    pad: 1
    kernel_size: 3
    stride: 1
    weight_filler {
      type: "gaussian"
      std: 0.01
    }
  }
}
layer {
  name: "res5c_relu_pre2_bn"
  type: "BatchNorm"
  bottom: "res5c_relu_pre2"
  top: "res5c_relu_pre2"
  param {
    lr_mult: 0
    decay_mult: 0
  }
  param {
    lr_mult: 0
    decay_mult: 0
  }
  param {
    lr_mult: 0
    decay_mult: 0
  }
  batch_norm_param {
    moving_average_fraction: 0.999
    eps: 0.001
  }
}
layer {
  name: "res5c_relu_pre2_scale"
  type: "Scale"
  bottom: "res5c_relu_pre2"
  top: "res5c_relu_pre2"
  param {
    lr_mult: 1
    decay_mult: 0
  }
  param {
    lr_mult: 1
    decay_mult: 0
  }
  scale_param {
    filler {
      type: "constant"
      value: 1.0
    }
    bias_term: true
    bias_filler {
      type: "constant"
      value: 0.0
    }
  }
}
layer {
  name: "deconv_5_pre"
  type: "Convolution"
  bottom: "deconv_5"
  top: "deconv_5_pre"
  param {
    lr_mult: 1
    decay_mult: 1
  }
  convolution_param {
    num_output: 512
    bias_term: false
    pad: 1
    kernel_size: 3
    stride: 1
    weight_filler {
      type: "gaussian"
      std: 0.01
    }
  }
}
layer {
  name: "deconv_5_pre_bn"
  type: "BatchNorm"
  bottom: "deconv_5_pre"
  top: "deconv_5_pre"
  param {
    lr_mult: 0
    decay_mult: 0
  }
  param {
    lr_mult: 0
    decay_mult: 0
  }
  param {
    lr_mult: 0
    decay_mult: 0
  }
  batch_norm_param {
    moving_average_fraction: 0.999
    eps: 0.001
  }
}
layer {
  name: "deconv_5_pre_scale"
  type: "Scale"
  bottom: "deconv_5_pre"
  top: "deconv_5_pre"
  param {
    lr_mult: 1
    decay_mult: 0
  }
  param {
    lr_mult: 1
    decay_mult: 0
  }
  scale_param {
    filler {
      type: "constant"
      value: 1.0
    }
    bias_term: true
    bias_filler {
      type: "constant"
      value: 0.0
    }
  }
}
layer {
  name: "combined_5_EltwisePROD"
  type: "Eltwise"
  bottom: "deconv_5_pre"
  bottom: "res5c_relu_pre2"
  top: "combined_5_EltwisePROD"
  eltwise_param {
    operation: PROD
  }
}
layer {
  name: "combined_5_EltwisePROD_relu"
  type: "ReLU"
  bottom: "combined_5_EltwisePROD"
  top: "combined_5_EltwisePROD_relu"
}
layer {
  name: "deconv_3"
  type: "Deconvolution"
  bottom: "combined_5_EltwisePROD_relu"
  top: "deconv_3"
  param {
    lr_mult: 1
    decay_mult: 1
  }
  param {
    lr_mult: 2
    decay_mult: 0
  }
  convolution_param {
    num_output: 512
    pad: 0
    kernel_size: 2
    stride: 2
    weight_filler {
      type: "xavier"
    }
    bias_filler {
      type: "constant"
      value: 0
    }
    dilation: 1
  }
}
layer {
  name: "res3d_relu_pre1"
  type: "Convolution"
  bottom: "res3d"
  top: "res3d_relu_pre1"
  param {
    lr_mult: 1
    decay_mult: 1
  }
  convolution_param {
    num_output: 512
    bias_term: false
    pad: 1
    kernel_size: 3
    stride: 1
    weight_filler {
      type: "gaussian"
      std: 0.01
    }
  }
}
layer {
  name: "res3d_relu_pre1_bn"
  type: "BatchNorm"
  bottom: "res3d_relu_pre1"
  top: "res3d_relu_pre1"
  param {
    lr_mult: 0
    decay_mult: 0
  }
  param {
    lr_mult: 0
    decay_mult: 0
  }
  param {
    lr_mult: 0
    decay_mult: 0
  }
  batch_norm_param {
    moving_average_fraction: 0.999
    eps: 0.001
  }
}
layer {
  name: "res3d_relu_pre1_scale"
  type: "Scale"
  bottom: "res3d_relu_pre1"
  top: "res3d_relu_pre1"
  param {
    lr_mult: 1
    decay_mult: 0
  }
  param {
    lr_mult: 1
    decay_mult: 0
  }
  scale_param {
    filler {
      type: "constant"
      value: 1.0
    }
    bias_term: true
    bias_filler {
      type: "constant"
      value: 0.0
    }
  }
}
layer {
  name: "res3d_relu_pre1_relu"
  type: "ReLU"
  bottom: "res3d_relu_pre1"
  top: "res3d_relu_pre1"
}
layer {
  name: "res3d_relu_pre2"
  type: "Convolution"
  bottom: "res3d_relu_pre1"
  top: "res3d_relu_pre2"
  param {
    lr_mult: 1
    decay_mult: 1
  }
  convolution_param {
    num_output: 512
    bias_term: false
    pad: 1
    kernel_size: 3
    stride: 1
    weight_filler {
      type: "gaussian"
      std: 0.01
    }
  }
}
layer {
  name: "res3d_relu_pre2_bn"
  type: "BatchNorm"
  bottom: "res3d_relu_pre2"
  top: "res3d_relu_pre2"
  param {
    lr_mult: 0
    decay_mult: 0
  }
  param {
    lr_mult: 0
    decay_mult: 0
  }
  param {
    lr_mult: 0
    decay_mult: 0
  }
  batch_norm_param {
    moving_average_fraction: 0.999
    eps: 0.001
  }
}
layer {
  name: "res3d_relu_pre2_scale"
  type: "Scale"
  bottom: "res3d_relu_pre2"
  top: "res3d_relu_pre2"
  param {
    lr_mult: 1
    decay_mult: 0
  }
  param {
    lr_mult: 1
    decay_mult: 0
  }
  scale_param {
    filler {
      type: "constant"
      value: 1.0
    }
    bias_term: true
    bias_filler {
      type: "constant"
      value: 0.0
    }
  }
}
layer {
  name: "deconv_3_pre"
  type: "Convolution"
  bottom: "deconv_3"
  top: "deconv_3_pre"
  param {
    lr_mult: 1
    decay_mult: 1
  }
  convolution_param {
    num_output: 512
    bias_term: false
    pad: 1
    kernel_size: 3
    stride: 1
    weight_filler {
      type: "gaussian"
      std: 0.01
    }
  }
}
layer {
  name: "deconv_3_pre_bn"
  type: "BatchNorm"
  bottom: "deconv_3_pre"
  top: "deconv_3_pre"
  param {
    lr_mult: 0
    decay_mult: 0
  }
  param {
    lr_mult: 0
    decay_mult: 0
  }
  param {
    lr_mult: 0
    decay_mult: 0
  }
  batch_norm_param {
    moving_average_fraction: 0.999
    eps: 0.001
  }
}
layer {
  name: "deconv_3_pre_scale"
  type: "Scale"
  bottom: "deconv_3_pre"
  top: "deconv_3_pre"
  param {
    lr_mult: 1
    decay_mult: 0
  }
  param {
    lr_mult: 1
    decay_mult: 0
  }
  scale_param {
    filler {
      type: "constant"
      value: 1.0
    }
    bias_term: true
    bias_filler {
      type: "constant"
      value: 0.0
    }
  }
}
layer {
  name: "combined_3_EltwisePROD"
  type: "Eltwise"
  bottom: "deconv_3_pre"
  bottom: "res3d_relu_pre2"
  top: "combined_3_EltwisePROD"
  eltwise_param {
    operation: PROD
  }
}
layer {
  name: "combined_3_EltwisePROD_relu"
  type: "ReLU"
  bottom: "combined_3_EltwisePROD"
  top: "combined_3_EltwisePROD_relu"
}
layer {
  name: "rescombined_3_EltwisePROD_relu_inter256_branch1"
  type: "Convolution"
  bottom: "combined_3_EltwisePROD_relu"
  top: "rescombined_3_EltwisePROD_relu_inter256_branch1"
  param {
    lr_mult: 1
    decay_mult: 1
  }
  convolution_param {
    num_output: 1024
    bias_term: false
    pad: 0
    kernel_size: 1
    stride: 1
    weight_filler {
      type: "gaussian"
      std: 0.01
    }
  }
}
layer {
  name: "bncombined_3_EltwisePROD_relu_inter256_branch1"
  type: "BatchNorm"
  bottom: "rescombined_3_EltwisePROD_relu_inter256_branch1"
  top: "rescombined_3_EltwisePROD_relu_inter256_branch1"
  param {
    lr_mult: 0
    decay_mult: 0
  }
  param {
    lr_mult: 0
    decay_mult: 0
  }
  param {
    lr_mult: 0
    decay_mult: 0
  }
  batch_norm_param {
    moving_average_fraction: 0.999
    eps: 0.001
  }
}
layer {
  name: "scalecombined_3_EltwisePROD_relu_inter256_branch1"
  type: "Scale"
  bottom: "rescombined_3_EltwisePROD_relu_inter256_branch1"
  top: "rescombined_3_EltwisePROD_relu_inter256_branch1"
  param {
    lr_mult: 1
    decay_mult: 0
  }
  param {
    lr_mult: 1
    decay_mult: 0
  }
  scale_param {
    filler {
      type: "constant"
      value: 1.0
    }
    bias_term: true
    bias_filler {
      type: "constant"
      value: 0.0
    }
  }
}
layer {
  name: "rescombined_3_EltwisePROD_relu_inter256_branch2a"
  type: "Convolution"
  bottom: "combined_3_EltwisePROD_relu"
  top: "rescombined_3_EltwisePROD_relu_inter256_branch2a"
  param {
    lr_mult: 1
    decay_mult: 1
  }
  convolution_param {
    num_output: 256
    bias_term: false
    pad: 0
    kernel_size: 1
    stride: 1
    weight_filler {
      type: "gaussian"
      std: 0.01
    }
  }
}
layer {
  name: "bncombined_3_EltwisePROD_relu_inter256_branch2a"
  type: "BatchNorm"
  bottom: "rescombined_3_EltwisePROD_relu_inter256_branch2a"
  top: "rescombined_3_EltwisePROD_relu_inter256_branch2a"
  param {
    lr_mult: 0
    decay_mult: 0
  }
  param {
    lr_mult: 0
    decay_mult: 0
  }
  param {
    lr_mult: 0
    decay_mult: 0
  }
  batch_norm_param {
    moving_average_fraction: 0.999
    eps: 0.001
  }
}
layer {
  name: "scalecombined_3_EltwisePROD_relu_inter256_branch2a"
  type: "Scale"
  bottom: "rescombined_3_EltwisePROD_relu_inter256_branch2a"
  top: "rescombined_3_EltwisePROD_relu_inter256_branch2a"
  param {
    lr_mult: 1
    decay_mult: 0
  }
  param {
    lr_mult: 1
    decay_mult: 0
  }
  scale_param {
    filler {
      type: "constant"
      value: 1.0
    }
    bias_term: true
    bias_filler {
      type: "constant"
      value: 0.0
    }
  }
}
layer {
  name: "rescombined_3_EltwisePROD_relu_inter256_branch2a_relu"
  type: "ReLU"
  bottom: "rescombined_3_EltwisePROD_relu_inter256_branch2a"
  top: "rescombined_3_EltwisePROD_relu_inter256_branch2a"
}
layer {
  name: "rescombined_3_EltwisePROD_relu_inter256_branch2b"
  type: "Convolution"
  bottom: "rescombined_3_EltwisePROD_relu_inter256_branch2a"
  top: "rescombined_3_EltwisePROD_relu_inter256_branch2b"
  param {
    lr_mult: 1
    decay_mult: 1
  }
  convolution_param {
    num_output: 256
    bias_term: false
    pad: 1
    kernel_size: 3
    stride: 1
    weight_filler {
      type: "gaussian"
      std: 0.01
    }
  }
}
layer {
  name: "bncombined_3_EltwisePROD_relu_inter256_branch2b"
  type: "BatchNorm"
  bottom: "rescombined_3_EltwisePROD_relu_inter256_branch2b"
  top: "rescombined_3_EltwisePROD_relu_inter256_branch2b"
  param {
    lr_mult: 0
    decay_mult: 0
  }
  param {
    lr_mult: 0
    decay_mult: 0
  }
  param {
    lr_mult: 0
    decay_mult: 0
  }
  batch_norm_param {
    moving_average_fraction: 0.999
    eps: 0.001
  }
}
layer {
  name: "scalecombined_3_EltwisePROD_relu_inter256_branch2b"
  type: "Scale"
  bottom: "rescombined_3_EltwisePROD_relu_inter256_branch2b"
  top: "rescombined_3_EltwisePROD_relu_inter256_branch2b"
  param {
    lr_mult: 1
    decay_mult: 0
  }
  param {
    lr_mult: 1
    decay_mult: 0
  }
  scale_param {
    filler {
      type: "constant"
      value: 1.0
    }
    bias_term: true
    bias_filler {
      type: "constant"
      value: 0.0
    }
  }
}
layer {
  name: "rescombined_3_EltwisePROD_relu_inter256_branch2b_relu"
  type: "ReLU"
  bottom: "rescombined_3_EltwisePROD_relu_inter256_branch2b"
  top: "rescombined_3_EltwisePROD_relu_inter256_branch2b"
}
layer {
  name: "rescombined_3_EltwisePROD_relu_inter256_branch2c"
  type: "Convolution"
  bottom: "rescombined_3_EltwisePROD_relu_inter256_branch2b"
  top: "rescombined_3_EltwisePROD_relu_inter256_branch2c"
  param {
    lr_mult: 1
    decay_mult: 1
  }
  convolution_param {
    num_output: 1024
    bias_term: false
    pad: 0
    kernel_size: 1
    stride: 1
    weight_filler {
      type: "gaussian"
      std: 0.01
    }
  }
}
layer {
  name: "bncombined_3_EltwisePROD_relu_inter256_branch2c"
  type: "BatchNorm"
  bottom: "rescombined_3_EltwisePROD_relu_inter256_branch2c"
  top: "rescombined_3_EltwisePROD_relu_inter256_branch2c"
  param {
    lr_mult: 0
    decay_mult: 0
  }
  param {
    lr_mult: 0
    decay_mult: 0
  }
  param {
    lr_mult: 0
    decay_mult: 0
  }
  batch_norm_param {
    moving_average_fraction: 0.999
    eps: 0.001
  }
}
layer {
  name: "scalecombined_3_EltwisePROD_relu_inter256_branch2c"
  type: "Scale"
  bottom: "rescombined_3_EltwisePROD_relu_inter256_branch2c"
  top: "rescombined_3_EltwisePROD_relu_inter256_branch2c"
  param {
    lr_mult: 1
    decay_mult: 0
  }
  param {
    lr_mult: 1
    decay_mult: 0
  }
  scale_param {
    filler {
      type: "constant"
      value: 1.0
    }
    bias_term: true
    bias_filler {
      type: "constant"
      value: 0.0
    }
  }
}
layer {
  name: "rescombined_3_EltwisePROD_relu_inter256"
  type: "Eltwise"
  bottom: "rescombined_3_EltwisePROD_relu_inter256_branch1"
  bottom: "rescombined_3_EltwisePROD_relu_inter256_branch2c"
  top: "rescombined_3_EltwisePROD_relu_inter256"
}
layer {
  name: "rescombined_3_EltwisePROD_relu_inter256_relu"
  type: "ReLU"
  bottom: "rescombined_3_EltwisePROD_relu_inter256"
  top: "rescombined_3_EltwisePROD_relu_inter256"
}
layer {
  name: "rescombined_5_EltwisePROD_relu_inter256_branch1"
  type: "Convolution"
  bottom: "combined_5_EltwisePROD_relu"
  top: "rescombined_5_EltwisePROD_relu_inter256_branch1"
  param {
    lr_mult: 1
    decay_mult: 1
  }
  convolution_param {
    num_output: 1024
    bias_term: false
    pad: 0
    kernel_size: 1
    stride: 1
    weight_filler {
      type: "gaussian"
      std: 0.01
    }
  }
}
layer {
  name: "bncombined_5_EltwisePROD_relu_inter256_branch1"
  type: "BatchNorm"
  bottom: "rescombined_5_EltwisePROD_relu_inter256_branch1"
  top: "rescombined_5_EltwisePROD_relu_inter256_branch1"
  param {
    lr_mult: 0
    decay_mult: 0
  }
  param {
    lr_mult: 0
    decay_mult: 0
  }
  param {
    lr_mult: 0
    decay_mult: 0
  }
  batch_norm_param {
    moving_average_fraction: 0.999
    eps: 0.001
  }
}
layer {
  name: "scalecombined_5_EltwisePROD_relu_inter256_branch1"
  type: "Scale"
  bottom: "rescombined_5_EltwisePROD_relu_inter256_branch1"
  top: "rescombined_5_EltwisePROD_relu_inter256_branch1"
  param {
    lr_mult: 1
    decay_mult: 0
  }
  param {
    lr_mult: 1
    decay_mult: 0
  }
  scale_param {
    filler {
      type: "constant"
      value: 1.0
    }
    bias_term: true
    bias_filler {
      type: "constant"
      value: 0.0
    }
  }
}
layer {
  name: "rescombined_5_EltwisePROD_relu_inter256_branch2a"
  type: "Convolution"
  bottom: "combined_5_EltwisePROD_relu"
  top: "rescombined_5_EltwisePROD_relu_inter256_branch2a"
  param {
    lr_mult: 1
    decay_mult: 1
  }
  convolution_param {
    num_output: 256
    bias_term: false
    pad: 0
    kernel_size: 1
    stride: 1
    weight_filler {
      type: "gaussian"
      std: 0.01
    }
  }
}
layer {
  name: "bncombined_5_EltwisePROD_relu_inter256_branch2a"
  type: "BatchNorm"
  bottom: "rescombined_5_EltwisePROD_relu_inter256_branch2a"
  top: "rescombined_5_EltwisePROD_relu_inter256_branch2a"
  param {
    lr_mult: 0
    decay_mult: 0
  }
  param {
    lr_mult: 0
    decay_mult: 0
  }
  param {
    lr_mult: 0
    decay_mult: 0
  }
  batch_norm_param {
    moving_average_fraction: 0.999
    eps: 0.001
  }
}
layer {
  name: "scalecombined_5_EltwisePROD_relu_inter256_branch2a"
  type: "Scale"
  bottom: "rescombined_5_EltwisePROD_relu_inter256_branch2a"
  top: "rescombined_5_EltwisePROD_relu_inter256_branch2a"
  param {
    lr_mult: 1
    decay_mult: 0
  }
  param {
    lr_mult: 1
    decay_mult: 0
  }
  scale_param {
    filler {
      type: "constant"
      value: 1.0
    }
    bias_term: true
    bias_filler {
      type: "constant"
      value: 0.0
    }
  }
}
layer {
  name: "rescombined_5_EltwisePROD_relu_inter256_branch2a_relu"
  type: "ReLU"
  bottom: "rescombined_5_EltwisePROD_relu_inter256_branch2a"
  top: "rescombined_5_EltwisePROD_relu_inter256_branch2a"
}
layer {
  name: "rescombined_5_EltwisePROD_relu_inter256_branch2b"
  type: "Convolution"
  bottom: "rescombined_5_EltwisePROD_relu_inter256_branch2a"
  top: "rescombined_5_EltwisePROD_relu_inter256_branch2b"
  param {
    lr_mult: 1
    decay_mult: 1
  }
  convolution_param {
    num_output: 256
    bias_term: false
    pad: 1
    kernel_size: 3
    stride: 1
    weight_filler {
      type: "gaussian"
      std: 0.01
    }
  }
}
layer {
  name: "bncombined_5_EltwisePROD_relu_inter256_branch2b"
  type: "BatchNorm"
  bottom: "rescombined_5_EltwisePROD_relu_inter256_branch2b"
  top: "rescombined_5_EltwisePROD_relu_inter256_branch2b"
  param {
    lr_mult: 0
    decay_mult: 0
  }
  param {
    lr_mult: 0
    decay_mult: 0
  }
  param {
    lr_mult: 0
    decay_mult: 0
  }
  batch_norm_param {
    moving_average_fraction: 0.999
    eps: 0.001
  }
}
layer {
  name: "scalecombined_5_EltwisePROD_relu_inter256_branch2b"
  type: "Scale"
  bottom: "rescombined_5_EltwisePROD_relu_inter256_branch2b"
  top: "rescombined_5_EltwisePROD_relu_inter256_branch2b"
  param {
    lr_mult: 1
    decay_mult: 0
  }
  param {
    lr_mult: 1
    decay_mult: 0
  }
  scale_param {
    filler {
      type: "constant"
      value: 1.0
    }
    bias_term: true
    bias_filler {
      type: "constant"
      value: 0.0
    }
  }
}
layer {
  name: "rescombined_5_EltwisePROD_relu_inter256_branch2b_relu"
  type: "ReLU"
  bottom: "rescombined_5_EltwisePROD_relu_inter256_branch2b"
  top: "rescombined_5_EltwisePROD_relu_inter256_branch2b"
}
layer {
  name: "rescombined_5_EltwisePROD_relu_inter256_branch2c"
  type: "Convolution"
  bottom: "rescombined_5_EltwisePROD_relu_inter256_branch2b"
  top: "rescombined_5_EltwisePROD_relu_inter256_branch2c"
  param {
    lr_mult: 1
    decay_mult: 1
  }
  convolution_param {
    num_output: 1024
    bias_term: false
    pad: 0
    kernel_size: 1
    stride: 1
    weight_filler {
      type: "gaussian"
      std: 0.01
    }
  }
}
layer {
  name: "bncombined_5_EltwisePROD_relu_inter256_branch2c"
  type: "BatchNorm"
  bottom: "rescombined_5_EltwisePROD_relu_inter256_branch2c"
  top: "rescombined_5_EltwisePROD_relu_inter256_branch2c"
  param {
    lr_mult: 0
    decay_mult: 0
  }
  param {
    lr_mult: 0
    decay_mult: 0
  }
  param {
    lr_mult: 0
    decay_mult: 0
  }
  batch_norm_param {
    moving_average_fraction: 0.999
    eps: 0.001
  }
}
layer {
  name: "scalecombined_5_EltwisePROD_relu_inter256_branch2c"
  type: "Scale"
  bottom: "rescombined_5_EltwisePROD_relu_inter256_branch2c"
  top: "rescombined_5_EltwisePROD_relu_inter256_branch2c"
  param {
    lr_mult: 1
    decay_mult: 0
  }
  param {
    lr_mult: 1
    decay_mult: 0
  }
  scale_param {
    filler {
      type: "constant"
      value: 1.0
    }
    bias_term: true
    bias_filler {
      type: "constant"
      value: 0.0
    }
  }
}
layer {
  name: "rescombined_5_EltwisePROD_relu_inter256"
  type: "Eltwise"
  bottom: "rescombined_5_EltwisePROD_relu_inter256_branch1"
  bottom: "rescombined_5_EltwisePROD_relu_inter256_branch2c"
  top: "rescombined_5_EltwisePROD_relu_inter256"
}
layer {
  name: "rescombined_5_EltwisePROD_relu_inter256_relu"
  type: "ReLU"
  bottom: "rescombined_5_EltwisePROD_relu_inter256"
  top: "rescombined_5_EltwisePROD_relu_inter256"
}
layer {
  name: "rescombined_6_EltwisePROD_relu_inter256_branch1"
  type: "Convolution"
  bottom: "combined_6_EltwisePROD_relu"
  top: "rescombined_6_EltwisePROD_relu_inter256_branch1"
  param {
    lr_mult: 1
    decay_mult: 1
  }
  convolution_param {
    num_output: 1024
    bias_term: false
    pad: 0
    kernel_size: 1
    stride: 1
    weight_filler {
      type: "gaussian"
      std: 0.01
    }
  }
}
layer {
  name: "bncombined_6_EltwisePROD_relu_inter256_branch1"
  type: "BatchNorm"
  bottom: "rescombined_6_EltwisePROD_relu_inter256_branch1"
  top: "rescombined_6_EltwisePROD_relu_inter256_branch1"
  param {
    lr_mult: 0
    decay_mult: 0
  }
  param {
    lr_mult: 0
    decay_mult: 0
  }
  param {
    lr_mult: 0
    decay_mult: 0
  }
  batch_norm_param {
    moving_average_fraction: 0.999
    eps: 0.001
  }
}
layer {
  name: "scalecombined_6_EltwisePROD_relu_inter256_branch1"
  type: "Scale"
  bottom: "rescombined_6_EltwisePROD_relu_inter256_branch1"
  top: "rescombined_6_EltwisePROD_relu_inter256_branch1"
  param {
    lr_mult: 1
    decay_mult: 0
  }
  param {
    lr_mult: 1
    decay_mult: 0
  }
  scale_param {
    filler {
      type: "constant"
      value: 1.0
    }
    bias_term: true
    bias_filler {
      type: "constant"
      value: 0.0
    }
  }
}
layer {
  name: "rescombined_6_EltwisePROD_relu_inter256_branch2a"
  type: "Convolution"
  bottom: "combined_6_EltwisePROD_relu"
  top: "rescombined_6_EltwisePROD_relu_inter256_branch2a"
  param {
    lr_mult: 1
    decay_mult: 1
  }
  convolution_param {
    num_output: 256
    bias_term: false
    pad: 0
    kernel_size: 1
    stride: 1
    weight_filler {
      type: "gaussian"
      std: 0.01
    }
  }
}
layer {
  name: "bncombined_6_EltwisePROD_relu_inter256_branch2a"
  type: "BatchNorm"
  bottom: "rescombined_6_EltwisePROD_relu_inter256_branch2a"
  top: "rescombined_6_EltwisePROD_relu_inter256_branch2a"
  param {
    lr_mult: 0
    decay_mult: 0
  }
  param {
    lr_mult: 0
    decay_mult: 0
  }
  param {
    lr_mult: 0
    decay_mult: 0
  }
  batch_norm_param {
    moving_average_fraction: 0.999
    eps: 0.001
  }
}
layer {
  name: "scalecombined_6_EltwisePROD_relu_inter256_branch2a"
  type: "Scale"
  bottom: "rescombined_6_EltwisePROD_relu_inter256_branch2a"
  top: "rescombined_6_EltwisePROD_relu_inter256_branch2a"
  param {
    lr_mult: 1
    decay_mult: 0
  }
  param {
    lr_mult: 1
    decay_mult: 0
  }
  scale_param {
    filler {
      type: "constant"
      value: 1.0
    }
    bias_term: true
    bias_filler {
      type: "constant"
      value: 0.0
    }
  }
}
layer {
  name: "rescombined_6_EltwisePROD_relu_inter256_branch2a_relu"
  type: "ReLU"
  bottom: "rescombined_6_EltwisePROD_relu_inter256_branch2a"
  top: "rescombined_6_EltwisePROD_relu_inter256_branch2a"
}
layer {
  name: "rescombined_6_EltwisePROD_relu_inter256_branch2b"
  type: "Convolution"
  bottom: "rescombined_6_EltwisePROD_relu_inter256_branch2a"
  top: "rescombined_6_EltwisePROD_relu_inter256_branch2b"
  param {
    lr_mult: 1
    decay_mult: 1
  }
  convolution_param {
    num_output: 256
    bias_term: false
    pad: 1
    kernel_size: 3
    stride: 1
    weight_filler {
      type: "gaussian"
      std: 0.01
    }
  }
}
layer {
  name: "bncombined_6_EltwisePROD_relu_inter256_branch2b"
  type: "BatchNorm"
  bottom: "rescombined_6_EltwisePROD_relu_inter256_branch2b"
  top: "rescombined_6_EltwisePROD_relu_inter256_branch2b"
  param {
    lr_mult: 0
    decay_mult: 0
  }
  param {
    lr_mult: 0
    decay_mult: 0
  }
  param {
    lr_mult: 0
    decay_mult: 0
  }
  batch_norm_param {
    moving_average_fraction: 0.999
    eps: 0.001
  }
}
layer {
  name: "scalecombined_6_EltwisePROD_relu_inter256_branch2b"
  type: "Scale"
  bottom: "rescombined_6_EltwisePROD_relu_inter256_branch2b"
  top: "rescombined_6_EltwisePROD_relu_inter256_branch2b"
  param {
    lr_mult: 1
    decay_mult: 0
  }
  param {
    lr_mult: 1
    decay_mult: 0
  }
  scale_param {
    filler {
      type: "constant"
      value: 1.0
    }
    bias_term: true
    bias_filler {
      type: "constant"
      value: 0.0
    }
  }
}
layer {
  name: "rescombined_6_EltwisePROD_relu_inter256_branch2b_relu"
  type: "ReLU"
  bottom: "rescombined_6_EltwisePROD_relu_inter256_branch2b"
  top: "rescombined_6_EltwisePROD_relu_inter256_branch2b"
}
layer {
  name: "rescombined_6_EltwisePROD_relu_inter256_branch2c"
  type: "Convolution"
  bottom: "rescombined_6_EltwisePROD_relu_inter256_branch2b"
  top: "rescombined_6_EltwisePROD_relu_inter256_branch2c"
  param {
    lr_mult: 1
    decay_mult: 1
  }
  convolution_param {
    num_output: 1024
    bias_term: false
    pad: 0
    kernel_size: 1
    stride: 1
    weight_filler {
      type: "gaussian"
      std: 0.01
    }
  }
}
layer {
  name: "bncombined_6_EltwisePROD_relu_inter256_branch2c"
  type: "BatchNorm"
  bottom: "rescombined_6_EltwisePROD_relu_inter256_branch2c"
  top: "rescombined_6_EltwisePROD_relu_inter256_branch2c"
  param {
    lr_mult: 0
    decay_mult: 0
  }
  param {
    lr_mult: 0
    decay_mult: 0
  }
  param {
    lr_mult: 0
    decay_mult: 0
  }
  batch_norm_param {
    moving_average_fraction: 0.999
    eps: 0.001
  }
}
layer {
  name: "scalecombined_6_EltwisePROD_relu_inter256_branch2c"
  type: "Scale"
  bottom: "rescombined_6_EltwisePROD_relu_inter256_branch2c"
  top: "rescombined_6_EltwisePROD_relu_inter256_branch2c"
  param {
    lr_mult: 1
    decay_mult: 0
  }
  param {
    lr_mult: 1
    decay_mult: 0
  }
  scale_param {
    filler {
      type: "constant"
      value: 1.0
    }
    bias_term: true
    bias_filler {
      type: "constant"
      value: 0.0
    }
  }
}
layer {
  name: "rescombined_6_EltwisePROD_relu_inter256"
  type: "Eltwise"
  bottom: "rescombined_6_EltwisePROD_relu_inter256_branch1"
  bottom: "rescombined_6_EltwisePROD_relu_inter256_branch2c"
  top: "rescombined_6_EltwisePROD_relu_inter256"
}
layer {
  name: "rescombined_6_EltwisePROD_relu_inter256_relu"
  type: "ReLU"
  bottom: "rescombined_6_EltwisePROD_relu_inter256"
  top: "rescombined_6_EltwisePROD_relu_inter256"
}
layer {
  name: "rescombined_7_EltwisePROD_relu_inter256_branch1"
  type: "Convolution"
  bottom: "combined_7_EltwisePROD_relu"
  top: "rescombined_7_EltwisePROD_relu_inter256_branch1"
  param {
    lr_mult: 1
    decay_mult: 1
  }
  convolution_param {
    num_output: 1024
    bias_term: false
    pad: 0
    kernel_size: 1
    stride: 1
    weight_filler {
      type: "gaussian"
      std: 0.01
    }
  }
}
layer {
  name: "bncombined_7_EltwisePROD_relu_inter256_branch1"
  type: "BatchNorm"
  bottom: "rescombined_7_EltwisePROD_relu_inter256_branch1"
  top: "rescombined_7_EltwisePROD_relu_inter256_branch1"
  param {
    lr_mult: 0
    decay_mult: 0
  }
  param {
    lr_mult: 0
    decay_mult: 0
  }
  param {
    lr_mult: 0
    decay_mult: 0
  }
  batch_norm_param {
    moving_average_fraction: 0.999
    eps: 0.001
  }
}
layer {
  name: "scalecombined_7_EltwisePROD_relu_inter256_branch1"
  type: "Scale"
  bottom: "rescombined_7_EltwisePROD_relu_inter256_branch1"
  top: "rescombined_7_EltwisePROD_relu_inter256_branch1"
  param {
    lr_mult: 1
    decay_mult: 0
  }
  param {
    lr_mult: 1
    decay_mult: 0
  }
  scale_param {
    filler {
      type: "constant"
      value: 1.0
    }
    bias_term: true
    bias_filler {
      type: "constant"
      value: 0.0
    }
  }
}
layer {
  name: "rescombined_7_EltwisePROD_relu_inter256_branch2a"
  type: "Convolution"
  bottom: "combined_7_EltwisePROD_relu"
  top: "rescombined_7_EltwisePROD_relu_inter256_branch2a"
  param {
    lr_mult: 1
    decay_mult: 1
  }
  convolution_param {
    num_output: 256
    bias_term: false
    pad: 0
    kernel_size: 1
    stride: 1
    weight_filler {
      type: "gaussian"
      std: 0.01
    }
  }
}
layer {
  name: "bncombined_7_EltwisePROD_relu_inter256_branch2a"
  type: "BatchNorm"
  bottom: "rescombined_7_EltwisePROD_relu_inter256_branch2a"
  top: "rescombined_7_EltwisePROD_relu_inter256_branch2a"
  param {
    lr_mult: 0
    decay_mult: 0
  }
  param {
    lr_mult: 0
    decay_mult: 0
  }
  param {
    lr_mult: 0
    decay_mult: 0
  }
  batch_norm_param {
    moving_average_fraction: 0.999
    eps: 0.001
  }
}
layer {
  name: "scalecombined_7_EltwisePROD_relu_inter256_branch2a"
  type: "Scale"
  bottom: "rescombined_7_EltwisePROD_relu_inter256_branch2a"
  top: "rescombined_7_EltwisePROD_relu_inter256_branch2a"
  param {
    lr_mult: 1
    decay_mult: 0
  }
  param {
    lr_mult: 1
    decay_mult: 0
  }
  scale_param {
    filler {
      type: "constant"
      value: 1.0
    }
    bias_term: true
    bias_filler {
      type: "constant"
      value: 0.0
    }
  }
}
layer {
  name: "rescombined_7_EltwisePROD_relu_inter256_branch2a_relu"
  type: "ReLU"
  bottom: "rescombined_7_EltwisePROD_relu_inter256_branch2a"
  top: "rescombined_7_EltwisePROD_relu_inter256_branch2a"
}
layer {
  name: "rescombined_7_EltwisePROD_relu_inter256_branch2b"
  type: "Convolution"
  bottom: "rescombined_7_EltwisePROD_relu_inter256_branch2a"
  top: "rescombined_7_EltwisePROD_relu_inter256_branch2b"
  param {
    lr_mult: 1
    decay_mult: 1
  }
  convolution_param {
    num_output: 256
    bias_term: false
    pad: 1
    kernel_size: 3
    stride: 1
    weight_filler {
      type: "gaussian"
      std: 0.01
    }
  }
}
layer {
  name: "bncombined_7_EltwisePROD_relu_inter256_branch2b"
  type: "BatchNorm"
  bottom: "rescombined_7_EltwisePROD_relu_inter256_branch2b"
  top: "rescombined_7_EltwisePROD_relu_inter256_branch2b"
  param {
    lr_mult: 0
    decay_mult: 0
  }
  param {
    lr_mult: 0
    decay_mult: 0
  }
  param {
    lr_mult: 0
    decay_mult: 0
  }
  batch_norm_param {
    moving_average_fraction: 0.999
    eps: 0.001
  }
}
layer {
  name: "scalecombined_7_EltwisePROD_relu_inter256_branch2b"
  type: "Scale"
  bottom: "rescombined_7_EltwisePROD_relu_inter256_branch2b"
  top: "rescombined_7_EltwisePROD_relu_inter256_branch2b"
  param {
    lr_mult: 1
    decay_mult: 0
  }
  param {
    lr_mult: 1
    decay_mult: 0
  }
  scale_param {
    filler {
      type: "constant"
      value: 1.0
    }
    bias_term: true
    bias_filler {
      type: "constant"
      value: 0.0
    }
  }
}
layer {
  name: "rescombined_7_EltwisePROD_relu_inter256_branch2b_relu"
  type: "ReLU"
  bottom: "rescombined_7_EltwisePROD_relu_inter256_branch2b"
  top: "rescombined_7_EltwisePROD_relu_inter256_branch2b"
}
layer {
  name: "rescombined_7_EltwisePROD_relu_inter256_branch2c"
  type: "Convolution"
  bottom: "rescombined_7_EltwisePROD_relu_inter256_branch2b"
  top: "rescombined_7_EltwisePROD_relu_inter256_branch2c"
  param {
    lr_mult: 1
    decay_mult: 1
  }
  convolution_param {
    num_output: 1024
    bias_term: false
    pad: 0
    kernel_size: 1
    stride: 1
    weight_filler {
      type: "gaussian"
      std: 0.01
    }
  }
}
layer {
  name: "bncombined_7_EltwisePROD_relu_inter256_branch2c"
  type: "BatchNorm"
  bottom: "rescombined_7_EltwisePROD_relu_inter256_branch2c"
  top: "rescombined_7_EltwisePROD_relu_inter256_branch2c"
  param {
    lr_mult: 0
    decay_mult: 0
  }
  param {
    lr_mult: 0
    decay_mult: 0
  }
  param {
    lr_mult: 0
    decay_mult: 0
  }
  batch_norm_param {
    moving_average_fraction: 0.999
    eps: 0.001
  }
}
layer {
  name: "scalecombined_7_EltwisePROD_relu_inter256_branch2c"
  type: "Scale"
  bottom: "rescombined_7_EltwisePROD_relu_inter256_branch2c"
  top: "rescombined_7_EltwisePROD_relu_inter256_branch2c"
  param {
    lr_mult: 1
    decay_mult: 0
  }
  param {
    lr_mult: 1
    decay_mult: 0
  }
  scale_param {
    filler {
      type: "constant"
      value: 1.0
    }
    bias_term: true
    bias_filler {
      type: "constant"
      value: 0.0
    }
  }
}
layer {
  name: "rescombined_7_EltwisePROD_relu_inter256"
  type: "Eltwise"
  bottom: "rescombined_7_EltwisePROD_relu_inter256_branch1"
  bottom: "rescombined_7_EltwisePROD_relu_inter256_branch2c"
  top: "rescombined_7_EltwisePROD_relu_inter256"
}
layer {
  name: "rescombined_7_EltwisePROD_relu_inter256_relu"
  type: "ReLU"
  bottom: "rescombined_7_EltwisePROD_relu_inter256"
  top: "rescombined_7_EltwisePROD_relu_inter256"
}
layer {
  name: "rescombined_8_EltwisePROD_relu_inter256_branch1"
  type: "Convolution"
  bottom: "combined_8_EltwisePROD_relu"
  top: "rescombined_8_EltwisePROD_relu_inter256_branch1"
  param {
    lr_mult: 1
    decay_mult: 1
  }
  convolution_param {
    num_output: 1024
    bias_term: false
    pad: 0
    kernel_size: 1
    stride: 1
    weight_filler {
      type: "gaussian"
      std: 0.01
    }
  }
}
layer {
  name: "bncombined_8_EltwisePROD_relu_inter256_branch1"
  type: "BatchNorm"
  bottom: "rescombined_8_EltwisePROD_relu_inter256_branch1"
  top: "rescombined_8_EltwisePROD_relu_inter256_branch1"
  param {
    lr_mult: 0
    decay_mult: 0
  }
  param {
    lr_mult: 0
    decay_mult: 0
  }
  param {
    lr_mult: 0
    decay_mult: 0
  }
  batch_norm_param {
    moving_average_fraction: 0.999
    eps: 0.001
  }
}
layer {
  name: "scalecombined_8_EltwisePROD_relu_inter256_branch1"
  type: "Scale"
  bottom: "rescombined_8_EltwisePROD_relu_inter256_branch1"
  top: "rescombined_8_EltwisePROD_relu_inter256_branch1"
  param {
    lr_mult: 1
    decay_mult: 0
  }
  param {
    lr_mult: 1
    decay_mult: 0
  }
  scale_param {
    filler {
      type: "constant"
      value: 1.0
    }
    bias_term: true
    bias_filler {
      type: "constant"
      value: 0.0
    }
  }
}
layer {
  name: "rescombined_8_EltwisePROD_relu_inter256_branch2a"
  type: "Convolution"
  bottom: "combined_8_EltwisePROD_relu"
  top: "rescombined_8_EltwisePROD_relu_inter256_branch2a"
  param {
    lr_mult: 1
    decay_mult: 1
  }
  convolution_param {
    num_output: 256
    bias_term: false
    pad: 0
    kernel_size: 1
    stride: 1
    weight_filler {
      type: "gaussian"
      std: 0.01
    }
  }
}
layer {
  name: "bncombined_8_EltwisePROD_relu_inter256_branch2a"
  type: "BatchNorm"
  bottom: "rescombined_8_EltwisePROD_relu_inter256_branch2a"
  top: "rescombined_8_EltwisePROD_relu_inter256_branch2a"
  param {
    lr_mult: 0
    decay_mult: 0
  }
  param {
    lr_mult: 0
    decay_mult: 0
  }
  param {
    lr_mult: 0
    decay_mult: 0
  }
  batch_norm_param {
    moving_average_fraction: 0.999
    eps: 0.001
  }
}
layer {
  name: "scalecombined_8_EltwisePROD_relu_inter256_branch2a"
  type: "Scale"
  bottom: "rescombined_8_EltwisePROD_relu_inter256_branch2a"
  top: "rescombined_8_EltwisePROD_relu_inter256_branch2a"
  param {
    lr_mult: 1
    decay_mult: 0
  }
  param {
    lr_mult: 1
    decay_mult: 0
  }
  scale_param {
    filler {
      type: "constant"
      value: 1.0
    }
    bias_term: true
    bias_filler {
      type: "constant"
      value: 0.0
    }
  }
}
layer {
  name: "rescombined_8_EltwisePROD_relu_inter256_branch2a_relu"
  type: "ReLU"
  bottom: "rescombined_8_EltwisePROD_relu_inter256_branch2a"
  top: "rescombined_8_EltwisePROD_relu_inter256_branch2a"
}
layer {
  name: "rescombined_8_EltwisePROD_relu_inter256_branch2b"
  type: "Convolution"
  bottom: "rescombined_8_EltwisePROD_relu_inter256_branch2a"
  top: "rescombined_8_EltwisePROD_relu_inter256_branch2b"
  param {
    lr_mult: 1
    decay_mult: 1
  }
  convolution_param {
    num_output: 256
    bias_term: false
    pad: 1
    kernel_size: 3
    stride: 1
    weight_filler {
      type: "gaussian"
      std: 0.01
    }
  }
}
layer {
  name: "bncombined_8_EltwisePROD_relu_inter256_branch2b"
  type: "BatchNorm"
  bottom: "rescombined_8_EltwisePROD_relu_inter256_branch2b"
  top: "rescombined_8_EltwisePROD_relu_inter256_branch2b"
  param {
    lr_mult: 0
    decay_mult: 0
  }
  param {
    lr_mult: 0
    decay_mult: 0
  }
  param {
    lr_mult: 0
    decay_mult: 0
  }
  batch_norm_param {
    moving_average_fraction: 0.999
    eps: 0.001
  }
}
layer {
  name: "scalecombined_8_EltwisePROD_relu_inter256_branch2b"
  type: "Scale"
  bottom: "rescombined_8_EltwisePROD_relu_inter256_branch2b"
  top: "rescombined_8_EltwisePROD_relu_inter256_branch2b"
  param {
    lr_mult: 1
    decay_mult: 0
  }
  param {
    lr_mult: 1
    decay_mult: 0
  }
  scale_param {
    filler {
      type: "constant"
      value: 1.0
    }
    bias_term: true
    bias_filler {
      type: "constant"
      value: 0.0
    }
  }
}
layer {
  name: "rescombined_8_EltwisePROD_relu_inter256_branch2b_relu"
  type: "ReLU"
  bottom: "rescombined_8_EltwisePROD_relu_inter256_branch2b"
  top: "rescombined_8_EltwisePROD_relu_inter256_branch2b"
}
layer {
  name: "rescombined_8_EltwisePROD_relu_inter256_branch2c"
  type: "Convolution"
  bottom: "rescombined_8_EltwisePROD_relu_inter256_branch2b"
  top: "rescombined_8_EltwisePROD_relu_inter256_branch2c"
  param {
    lr_mult: 1
    decay_mult: 1
  }
  convolution_param {
    num_output: 1024
    bias_term: false
    pad: 0
    kernel_size: 1
    stride: 1
    weight_filler {
      type: "gaussian"
      std: 0.01
    }
  }
}
layer {
  name: "bncombined_8_EltwisePROD_relu_inter256_branch2c"
  type: "BatchNorm"
  bottom: "rescombined_8_EltwisePROD_relu_inter256_branch2c"
  top: "rescombined_8_EltwisePROD_relu_inter256_branch2c"
  param {
    lr_mult: 0
    decay_mult: 0
  }
  param {
    lr_mult: 0
    decay_mult: 0
  }
  param {
    lr_mult: 0
    decay_mult: 0
  }
  batch_norm_param {
    moving_average_fraction: 0.999
    eps: 0.001
  }
}
layer {
  name: "scalecombined_8_EltwisePROD_relu_inter256_branch2c"
  type: "Scale"
  bottom: "rescombined_8_EltwisePROD_relu_inter256_branch2c"
  top: "rescombined_8_EltwisePROD_relu_inter256_branch2c"
  param {
    lr_mult: 1
    decay_mult: 0
  }
  param {
    lr_mult: 1
    decay_mult: 0
  }
  scale_param {
    filler {
      type: "constant"
      value: 1.0
    }
    bias_term: true
    bias_filler {
      type: "constant"
      value: 0.0
    }
  }
}
layer {
  name: "rescombined_8_EltwisePROD_relu_inter256"
  type: "Eltwise"
  bottom: "rescombined_8_EltwisePROD_relu_inter256_branch1"
  bottom: "rescombined_8_EltwisePROD_relu_inter256_branch2c"
  top: "rescombined_8_EltwisePROD_relu_inter256"
}
layer {
  name: "rescombined_8_EltwisePROD_relu_inter256_relu"
  type: "ReLU"
  bottom: "rescombined_8_EltwisePROD_relu_inter256"
  top: "rescombined_8_EltwisePROD_relu_inter256"
}
layer {
  name: "rescombined_9_EltwisePROD_relu_inter256_branch1"
  type: "Convolution"
  bottom: "combined_9_EltwisePROD_relu"
  top: "rescombined_9_EltwisePROD_relu_inter256_branch1"
  param {
    lr_mult: 1
    decay_mult: 1
  }
  convolution_param {
    num_output: 1024
    bias_term: false
    pad: 0
    kernel_size: 1
    stride: 1
    weight_filler {
      type: "gaussian"
      std: 0.01
    }
  }
}
layer {
  name: "bncombined_9_EltwisePROD_relu_inter256_branch1"
  type: "BatchNorm"
  bottom: "rescombined_9_EltwisePROD_relu_inter256_branch1"
  top: "rescombined_9_EltwisePROD_relu_inter256_branch1"
  param {
    lr_mult: 0
    decay_mult: 0
  }
  param {
    lr_mult: 0
    decay_mult: 0
  }
  param {
    lr_mult: 0
    decay_mult: 0
  }
  batch_norm_param {
    moving_average_fraction: 0.999
    eps: 0.001
  }
}
layer {
  name: "scalecombined_9_EltwisePROD_relu_inter256_branch1"
  type: "Scale"
  bottom: "rescombined_9_EltwisePROD_relu_inter256_branch1"
  top: "rescombined_9_EltwisePROD_relu_inter256_branch1"
  param {
    lr_mult: 1
    decay_mult: 0
  }
  param {
    lr_mult: 1
    decay_mult: 0
  }
  scale_param {
    filler {
      type: "constant"
      value: 1.0
    }
    bias_term: true
    bias_filler {
      type: "constant"
      value: 0.0
    }
  }
}
layer {
  name: "rescombined_9_EltwisePROD_relu_inter256_branch2a"
  type: "Convolution"
  bottom: "combined_9_EltwisePROD_relu"
  top: "rescombined_9_EltwisePROD_relu_inter256_branch2a"
  param {
    lr_mult: 1
    decay_mult: 1
  }
  convolution_param {
    num_output: 256
    bias_term: false
    pad: 0
    kernel_size: 1
    stride: 1
    weight_filler {
      type: "gaussian"
      std: 0.01
    }
  }
}
layer {
  name: "bncombined_9_EltwisePROD_relu_inter256_branch2a"
  type: "BatchNorm"
  bottom: "rescombined_9_EltwisePROD_relu_inter256_branch2a"
  top: "rescombined_9_EltwisePROD_relu_inter256_branch2a"
  param {
    lr_mult: 0
    decay_mult: 0
  }
  param {
    lr_mult: 0
    decay_mult: 0
  }
  param {
    lr_mult: 0
    decay_mult: 0
  }
  batch_norm_param {
    moving_average_fraction: 0.999
    eps: 0.001
  }
}
layer {
  name: "scalecombined_9_EltwisePROD_relu_inter256_branch2a"
  type: "Scale"
  bottom: "rescombined_9_EltwisePROD_relu_inter256_branch2a"
  top: "rescombined_9_EltwisePROD_relu_inter256_branch2a"
  param {
    lr_mult: 1
    decay_mult: 0
  }
  param {
    lr_mult: 1
    decay_mult: 0
  }
  scale_param {
    filler {
      type: "constant"
      value: 1.0
    }
    bias_term: true
    bias_filler {
      type: "constant"
      value: 0.0
    }
  }
}
layer {
  name: "rescombined_9_EltwisePROD_relu_inter256_branch2a_relu"
  type: "ReLU"
  bottom: "rescombined_9_EltwisePROD_relu_inter256_branch2a"
  top: "rescombined_9_EltwisePROD_relu_inter256_branch2a"
}
layer {
  name: "rescombined_9_EltwisePROD_relu_inter256_branch2b"
  type: "Convolution"
  bottom: "rescombined_9_EltwisePROD_relu_inter256_branch2a"
  top: "rescombined_9_EltwisePROD_relu_inter256_branch2b"
  param {
    lr_mult: 1
    decay_mult: 1
  }
  convolution_param {
    num_output: 256
    bias_term: false
    pad: 1
    kernel_size: 3
    stride: 1
    weight_filler {
      type: "gaussian"
      std: 0.01
    }
  }
}
layer {
  name: "bncombined_9_EltwisePROD_relu_inter256_branch2b"
  type: "BatchNorm"
  bottom: "rescombined_9_EltwisePROD_relu_inter256_branch2b"
  top: "rescombined_9_EltwisePROD_relu_inter256_branch2b"
  param {
    lr_mult: 0
    decay_mult: 0
  }
  param {
    lr_mult: 0
    decay_mult: 0
  }
  param {
    lr_mult: 0
    decay_mult: 0
  }
  batch_norm_param {
    moving_average_fraction: 0.999
    eps: 0.001
  }
}
layer {
  name: "scalecombined_9_EltwisePROD_relu_inter256_branch2b"
  type: "Scale"
  bottom: "rescombined_9_EltwisePROD_relu_inter256_branch2b"
  top: "rescombined_9_EltwisePROD_relu_inter256_branch2b"
  param {
    lr_mult: 1
    decay_mult: 0
  }
  param {
    lr_mult: 1
    decay_mult: 0
  }
  scale_param {
    filler {
      type: "constant"
      value: 1.0
    }
    bias_term: true
    bias_filler {
      type: "constant"
      value: 0.0
    }
  }
}
layer {
  name: "rescombined_9_EltwisePROD_relu_inter256_branch2b_relu"
  type: "ReLU"
  bottom: "rescombined_9_EltwisePROD_relu_inter256_branch2b"
  top: "rescombined_9_EltwisePROD_relu_inter256_branch2b"
}
layer {
  name: "rescombined_9_EltwisePROD_relu_inter256_branch2c"
  type: "Convolution"
  bottom: "rescombined_9_EltwisePROD_relu_inter256_branch2b"
  top: "rescombined_9_EltwisePROD_relu_inter256_branch2c"
  param {
    lr_mult: 1
    decay_mult: 1
  }
  convolution_param {
    num_output: 1024
    bias_term: false
    pad: 0
    kernel_size: 1
    stride: 1
    weight_filler {
      type: "gaussian"
      std: 0.01
    }
  }
}
layer {
  name: "bncombined_9_EltwisePROD_relu_inter256_branch2c"
  type: "BatchNorm"
  bottom: "rescombined_9_EltwisePROD_relu_inter256_branch2c"
  top: "rescombined_9_EltwisePROD_relu_inter256_branch2c"
  param {
    lr_mult: 0
    decay_mult: 0
  }
  param {
    lr_mult: 0
    decay_mult: 0
  }
  param {
    lr_mult: 0
    decay_mult: 0
  }
  batch_norm_param {
    moving_average_fraction: 0.999
    eps: 0.001
  }
}
layer {
  name: "scalecombined_9_EltwisePROD_relu_inter256_branch2c"
  type: "Scale"
  bottom: "rescombined_9_EltwisePROD_relu_inter256_branch2c"
  top: "rescombined_9_EltwisePROD_relu_inter256_branch2c"
  param {
    lr_mult: 1
    decay_mult: 0
  }
  param {
    lr_mult: 1
    decay_mult: 0
  }
  scale_param {
    filler {
      type: "constant"
      value: 1.0
    }
    bias_term: true
    bias_filler {
      type: "constant"
      value: 0.0
    }
  }
}
layer {
  name: "rescombined_9_EltwisePROD_relu_inter256"
  type: "Eltwise"
  bottom: "rescombined_9_EltwisePROD_relu_inter256_branch1"
  bottom: "rescombined_9_EltwisePROD_relu_inter256_branch2c"
  top: "rescombined_9_EltwisePROD_relu_inter256"
}
layer {
  name: "rescombined_9_EltwisePROD_relu_inter256_relu"
  type: "ReLU"
  bottom: "rescombined_9_EltwisePROD_relu_inter256"
  top: "rescombined_9_EltwisePROD_relu_inter256"
}
layer {
  name: "resres10_relu_inter256_branch1"
  type: "Convolution"
  bottom: "res10"
  top: "resres10_relu_inter256_branch1"
  param {
    lr_mult: 1
    decay_mult: 1
  }
  convolution_param {
    num_output: 1024
    bias_term: false
    pad: 0
    kernel_size: 1
    stride: 1
    weight_filler {
      type: "gaussian"
      std: 0.01
    }
  }
}
layer {
  name: "bnres10_relu_inter256_branch1"
  type: "BatchNorm"
  bottom: "resres10_relu_inter256_branch1"
  top: "resres10_relu_inter256_branch1"
  param {
    lr_mult: 0
    decay_mult: 0
  }
  param {
    lr_mult: 0
    decay_mult: 0
  }
  param {
    lr_mult: 0
    decay_mult: 0
  }
  batch_norm_param {
    moving_average_fraction: 0.999
    eps: 0.001
  }
}
layer {
  name: "scaleres10_relu_inter256_branch1"
  type: "Scale"
  bottom: "resres10_relu_inter256_branch1"
  top: "resres10_relu_inter256_branch1"
  param {
    lr_mult: 1
    decay_mult: 0
  }
  param {
    lr_mult: 1
    decay_mult: 0
  }
  scale_param {
    filler {
      type: "constant"
      value: 1.0
    }
    bias_term: true
    bias_filler {
      type: "constant"
      value: 0.0
    }
  }
}
layer {
  name: "resres10_relu_inter256_branch2a"
  type: "Convolution"
  bottom: "res10"
  top: "resres10_relu_inter256_branch2a"
  param {
    lr_mult: 1
    decay_mult: 1
  }
  convolution_param {
    num_output: 256
    bias_term: false
    pad: 0
    kernel_size: 1
    stride: 1
    weight_filler {
      type: "gaussian"
      std: 0.01
    }
  }
}
layer {
  name: "bnres10_relu_inter256_branch2a"
  type: "BatchNorm"
  bottom: "resres10_relu_inter256_branch2a"
  top: "resres10_relu_inter256_branch2a"
  param {
    lr_mult: 0
    decay_mult: 0
  }
  param {
    lr_mult: 0
    decay_mult: 0
  }
  param {
    lr_mult: 0
    decay_mult: 0
  }
  batch_norm_param {
    moving_average_fraction: 0.999
    eps: 0.001
  }
}
layer {
  name: "scaleres10_relu_inter256_branch2a"
  type: "Scale"
  bottom: "resres10_relu_inter256_branch2a"
  top: "resres10_relu_inter256_branch2a"
  param {
    lr_mult: 1
    decay_mult: 0
  }
  param {
    lr_mult: 1
    decay_mult: 0
  }
  scale_param {
    filler {
      type: "constant"
      value: 1.0
    }
    bias_term: true
    bias_filler {
      type: "constant"
      value: 0.0
    }
  }
}
layer {
  name: "resres10_relu_inter256_branch2a_relu"
  type: "ReLU"
  bottom: "resres10_relu_inter256_branch2a"
  top: "resres10_relu_inter256_branch2a"
}
layer {
  name: "resres10_relu_inter256_branch2b"
  type: "Convolution"
  bottom: "resres10_relu_inter256_branch2a"
  top: "resres10_relu_inter256_branch2b"
  param {
    lr_mult: 1
    decay_mult: 1
  }
  convolution_param {
    num_output: 256
    bias_term: false
    pad: 1
    kernel_size: 3
    stride: 1
    weight_filler {
      type: "gaussian"
      std: 0.01
    }
  }
}
layer {
  name: "bnres10_relu_inter256_branch2b"
  type: "BatchNorm"
  bottom: "resres10_relu_inter256_branch2b"
  top: "resres10_relu_inter256_branch2b"
  param {
    lr_mult: 0
    decay_mult: 0
  }
  param {
    lr_mult: 0
    decay_mult: 0
  }
  param {
    lr_mult: 0
    decay_mult: 0
  }
  batch_norm_param {
    moving_average_fraction: 0.999
    eps: 0.001
  }
}
layer {
  name: "scaleres10_relu_inter256_branch2b"
  type: "Scale"
  bottom: "resres10_relu_inter256_branch2b"
  top: "resres10_relu_inter256_branch2b"
  param {
    lr_mult: 1
    decay_mult: 0
  }
  param {
    lr_mult: 1
    decay_mult: 0
  }
  scale_param {
    filler {
      type: "constant"
      value: 1.0
    }
    bias_term: true
    bias_filler {
      type: "constant"
      value: 0.0
    }
  }
}
layer {
  name: "resres10_relu_inter256_branch2b_relu"
  type: "ReLU"
  bottom: "resres10_relu_inter256_branch2b"
  top: "resres10_relu_inter256_branch2b"
}
layer {
  name: "resres10_relu_inter256_branch2c"
  type: "Convolution"
  bottom: "resres10_relu_inter256_branch2b"
  top: "resres10_relu_inter256_branch2c"
  param {
    lr_mult: 1
    decay_mult: 1
  }
  convolution_param {
    num_output: 1024
    bias_term: false
    pad: 0
    kernel_size: 1
    stride: 1
    weight_filler {
      type: "gaussian"
      std: 0.01
    }
  }
}
layer {
  name: "bnres10_relu_inter256_branch2c"
  type: "BatchNorm"
  bottom: "resres10_relu_inter256_branch2c"
  top: "resres10_relu_inter256_branch2c"
  param {
    lr_mult: 0
    decay_mult: 0
  }
  param {
    lr_mult: 0
    decay_mult: 0
  }
  param {
    lr_mult: 0
    decay_mult: 0
  }
  batch_norm_param {
    moving_average_fraction: 0.999
    eps: 0.001
  }
}
layer {
  name: "scaleres10_relu_inter256_branch2c"
  type: "Scale"
  bottom: "resres10_relu_inter256_branch2c"
  top: "resres10_relu_inter256_branch2c"
  param {
    lr_mult: 1
    decay_mult: 0
  }
  param {
    lr_mult: 1
    decay_mult: 0
  }
  scale_param {
    filler {
      type: "constant"
      value: 1.0
    }
    bias_term: true
    bias_filler {
      type: "constant"
      value: 0.0
    }
  }
}
layer {
  name: "resres10_relu_inter256"
  type: "Eltwise"
  bottom: "resres10_relu_inter256_branch1"
  bottom: "resres10_relu_inter256_branch2c"
  top: "resres10_relu_inter256"
}
layer {
  name: "resres10_relu_inter256_relu"
  type: "ReLU"
  bottom: "resres10_relu_inter256"
  top: "resres10_relu_inter256"
}
layer {
  name: "rescombined_3_EltwisePROD_relu_inter256_mbox_locnew_inter"
  type: "Convolution"
  bottom: "rescombined_3_EltwisePROD_relu_inter256"
  top: "rescombined_3_EltwisePROD_relu_inter256_mbox_locnew_inter"
  param {
    lr_mult: 1
    decay_mult: 1
  }
  convolution_param {
    num_output: 512
    bias_term: false
    pad: 1
    kernel_size: 3
    stride: 1
    weight_filler {
      type: "gaussian"
      std: 0.01
    }
  }
}
layer {
  name: "rescombined_3_EltwisePROD_relu_inter256_mbox_locnew_inter_bn"
  type: "BatchNorm"
  bottom: "rescombined_3_EltwisePROD_relu_inter256_mbox_locnew_inter"
  top: "rescombined_3_EltwisePROD_relu_inter256_mbox_locnew_inter"
  param {
    lr_mult: 0
    decay_mult: 0
  }
  param {
    lr_mult: 0
    decay_mult: 0
  }
  param {
    lr_mult: 0
    decay_mult: 0
  }
  batch_norm_param {
    moving_average_fraction: 0.999
    eps: 0.001
  }
}
layer {
  name: "rescombined_3_EltwisePROD_relu_inter256_mbox_locnew_inter_scale"
  type: "Scale"
  bottom: "rescombined_3_EltwisePROD_relu_inter256_mbox_locnew_inter"
  top: "rescombined_3_EltwisePROD_relu_inter256_mbox_locnew_inter"
  param {
    lr_mult: 1
    decay_mult: 0
  }
  param {
    lr_mult: 1
    decay_mult: 0
  }
  scale_param {
    filler {
      type: "constant"
      value: 1.0
    }
    bias_term: true
    bias_filler {
      type: "constant"
      value: 0.0
    }
  }
}
layer {
  name: "rescombined_3_EltwisePROD_relu_inter256_mbox_locnew_inter_relu"
  type: "ReLU"
  bottom: "rescombined_3_EltwisePROD_relu_inter256_mbox_locnew_inter"
  top: "rescombined_3_EltwisePROD_relu_inter256_mbox_locnew_inter"
}
layer {
  name: "rescombined_3_EltwisePROD_relu_inter256_mbox_locnew"
  type: "Convolution"
  bottom: "rescombined_3_EltwisePROD_relu_inter256_mbox_locnew_inter"
  top: "rescombined_3_EltwisePROD_relu_inter256_mbox_locnew"
  param {
    lr_mult: 1
    decay_mult: 1
  }
  param {
    lr_mult: 2
    decay_mult: 0
  }
  convolution_param {
    num_output: 32
    pad: 2
    kernel_size: 5
    stride: 1
    weight_filler {
      type: "xavier"
    }
    bias_filler {
      type: "constant"
      value: 0
    }
  }
}
layer {
  name: "rescombined_3_EltwisePROD_relu_inter256_mbox_confnew_inter"
  type: "Convolution"
  bottom: "rescombined_3_EltwisePROD_relu_inter256"
  top: "rescombined_3_EltwisePROD_relu_inter256_mbox_confnew_inter"
  param {
    lr_mult: 1
    decay_mult: 1
  }
  convolution_param {
    num_output: 512
    bias_term: false
    pad: 1
    kernel_size: 3
    stride: 1
    weight_filler {
      type: "gaussian"
      std: 0.01
    }
  }
}
layer {
  name: "rescombined_3_EltwisePROD_relu_inter256_mbox_confnew_inter_bn"
  type: "BatchNorm"
  bottom: "rescombined_3_EltwisePROD_relu_inter256_mbox_confnew_inter"
  top: "rescombined_3_EltwisePROD_relu_inter256_mbox_confnew_inter"
  param {
    lr_mult: 0
    decay_mult: 0
  }
  param {
    lr_mult: 0
    decay_mult: 0
  }
  param {
    lr_mult: 0
    decay_mult: 0
  }
  batch_norm_param {
    moving_average_fraction: 0.999
    eps: 0.001
  }
}
layer {
  name: "rescombined_3_EltwisePROD_relu_inter256_mbox_confnew_inter_scale"
  type: "Scale"
  bottom: "rescombined_3_EltwisePROD_relu_inter256_mbox_confnew_inter"
  top: "rescombined_3_EltwisePROD_relu_inter256_mbox_confnew_inter"
  param {
    lr_mult: 1
    decay_mult: 0
  }
  param {
    lr_mult: 1
    decay_mult: 0
  }
  scale_param {
    filler {
      type: "constant"
      value: 1.0
    }
    bias_term: true
    bias_filler {
      type: "constant"
      value: 0.0
    }
  }
}
layer {
  name: "rescombined_3_EltwisePROD_relu_inter256_mbox_confnew_inter_relu"
  type: "ReLU"
  bottom: "rescombined_3_EltwisePROD_relu_inter256_mbox_confnew_inter"
  top: "rescombined_3_EltwisePROD_relu_inter256_mbox_confnew_inter"
}
layer {
  name: "rescombined_3_EltwisePROD_relu_inter256_mbox_confnew"
  type: "Convolution"
  bottom: "rescombined_3_EltwisePROD_relu_inter256_mbox_confnew_inter"
  top: "rescombined_3_EltwisePROD_relu_inter256_mbox_confnew"
  param {
    lr_mult: 1
    decay_mult: 1
  }
  param {
    lr_mult: 2
    decay_mult: 0
  }
  convolution_param {
    num_output: 648
    pad: 2
    kernel_size: 5
    stride: 1
    weight_filler {
      type: "xavier"
    }
    bias_filler {
      type: "constant"
      value: 0
    }
  }
}
layer {
  name: "rescombined_3_EltwisePROD_relu_inter256_mbox_priorbox"
  type: "PriorBox"
  bottom: "rescombined_3_EltwisePROD_relu_inter256"
  bottom: "data"
  top: "rescombined_3_EltwisePROD_relu_inter256_mbox_priorbox"
  prior_box_param {
    min_size: 20.52
    max_size: 51.3
    aspect_ratio: 1.6
    aspect_ratio: 2.0
    aspect_ratio: 3.0
    flip: true
    clip: false
    variance: 0.1
    variance: 0.1
    variance: 0.2
    variance: 0.2
    step: 8
    offset: 2.5
  }
}
layer {
  name: "rescombined_5_EltwisePROD_relu_inter256_mbox_locnew_inter"
  type: "Convolution"
  bottom: "rescombined_5_EltwisePROD_relu_inter256"
  top: "rescombined_5_EltwisePROD_relu_inter256_mbox_locnew_inter"
  param {
    lr_mult: 1
    decay_mult: 1
  }
  convolution_param {
    num_output: 512
    bias_term: false
    pad: 1
    kernel_size: 3
    stride: 1
    weight_filler {
      type: "gaussian"
      std: 0.01
    }
  }
}
layer {
  name: "rescombined_5_EltwisePROD_relu_inter256_mbox_locnew_inter_bn"
  type: "BatchNorm"
  bottom: "rescombined_5_EltwisePROD_relu_inter256_mbox_locnew_inter"
  top: "rescombined_5_EltwisePROD_relu_inter256_mbox_locnew_inter"
  param {
    lr_mult: 0
    decay_mult: 0
  }
  param {
    lr_mult: 0
    decay_mult: 0
  }
  param {
    lr_mult: 0
    decay_mult: 0
  }
  batch_norm_param {
    moving_average_fraction: 0.999
    eps: 0.001
  }
}
layer {
  name: "rescombined_5_EltwisePROD_relu_inter256_mbox_locnew_inter_scale"
  type: "Scale"
  bottom: "rescombined_5_EltwisePROD_relu_inter256_mbox_locnew_inter"
  top: "rescombined_5_EltwisePROD_relu_inter256_mbox_locnew_inter"
  param {
    lr_mult: 1
    decay_mult: 0
  }
  param {
    lr_mult: 1
    decay_mult: 0
  }
  scale_param {
    filler {
      type: "constant"
      value: 1.0
    }
    bias_term: true
    bias_filler {
      type: "constant"
      value: 0.0
    }
  }
}
layer {
  name: "rescombined_5_EltwisePROD_relu_inter256_mbox_locnew_inter_relu"
  type: "ReLU"
  bottom: "rescombined_5_EltwisePROD_relu_inter256_mbox_locnew_inter"
  top: "rescombined_5_EltwisePROD_relu_inter256_mbox_locnew_inter"
}
layer {
  name: "rescombined_5_EltwisePROD_relu_inter256_mbox_locnew"
  type: "Convolution"
  bottom: "rescombined_5_EltwisePROD_relu_inter256_mbox_locnew_inter"
  top: "rescombined_5_EltwisePROD_relu_inter256_mbox_locnew"
  param {
    lr_mult: 1
    decay_mult: 1
  }
  param {
    lr_mult: 2
    decay_mult: 0
  }
  convolution_param {
    num_output: 32
    pad: 2
    kernel_size: 5
    stride: 1
    weight_filler {
      type: "xavier"
    }
    bias_filler {
      type: "constant"
      value: 0
    }
  }
}
layer {
  name: "rescombined_5_EltwisePROD_relu_inter256_mbox_confnew_inter"
  type: "Convolution"
  bottom: "rescombined_5_EltwisePROD_relu_inter256"
  top: "rescombined_5_EltwisePROD_relu_inter256_mbox_confnew_inter"
  param {
    lr_mult: 1
    decay_mult: 1
  }
  convolution_param {
    num_output: 512
    bias_term: false
    pad: 1
    kernel_size: 3
    stride: 1
    weight_filler {
      type: "gaussian"
      std: 0.01
    }
  }
}
layer {
  name: "rescombined_5_EltwisePROD_relu_inter256_mbox_confnew_inter_bn"
  type: "BatchNorm"
  bottom: "rescombined_5_EltwisePROD_relu_inter256_mbox_confnew_inter"
  top: "rescombined_5_EltwisePROD_relu_inter256_mbox_confnew_inter"
  param {
    lr_mult: 0
    decay_mult: 0
  }
  param {
    lr_mult: 0
    decay_mult: 0
  }
  param {
    lr_mult: 0
    decay_mult: 0
  }
  batch_norm_param {
    moving_average_fraction: 0.999
    eps: 0.001
  }
}
layer {
  name: "rescombined_5_EltwisePROD_relu_inter256_mbox_confnew_inter_scale"
  type: "Scale"
  bottom: "rescombined_5_EltwisePROD_relu_inter256_mbox_confnew_inter"
  top: "rescombined_5_EltwisePROD_relu_inter256_mbox_confnew_inter"
  param {
    lr_mult: 1
    decay_mult: 0
  }
  param {
    lr_mult: 1
    decay_mult: 0
  }
  scale_param {
    filler {
      type: "constant"
      value: 1.0
    }
    bias_term: true
    bias_filler {
      type: "constant"
      value: 0.0
    }
  }
}
layer {
  name: "rescombined_5_EltwisePROD_relu_inter256_mbox_confnew_inter_relu"
  type: "ReLU"
  bottom: "rescombined_5_EltwisePROD_relu_inter256_mbox_confnew_inter"
  top: "rescombined_5_EltwisePROD_relu_inter256_mbox_confnew_inter"
}
layer {
  name: "rescombined_5_EltwisePROD_relu_inter256_mbox_confnew"
  type: "Convolution"
  bottom: "rescombined_5_EltwisePROD_relu_inter256_mbox_confnew_inter"
  top: "rescombined_5_EltwisePROD_relu_inter256_mbox_confnew"
  param {
    lr_mult: 1
    decay_mult: 1
  }
  param {
    lr_mult: 2
    decay_mult: 0
  }
  convolution_param {
    num_output: 648
    pad: 2
    kernel_size: 5
    stride: 1
    weight_filler {
      type: "xavier"
    }
    bias_filler {
      type: "constant"
      value: 0
    }
  }
}
layer {
  name: "rescombined_5_EltwisePROD_relu_inter256_mbox_priorbox"
  type: "PriorBox"
  bottom: "rescombined_5_EltwisePROD_relu_inter256"
  bottom: "data"
  top: "rescombined_5_EltwisePROD_relu_inter256_mbox_priorbox"
  prior_box_param {
    min_size: 51.3
    max_size: 138.51
    aspect_ratio: 1.6
    aspect_ratio: 2.0
    aspect_ratio: 3.0
    flip: true
    clip: false
    variance: 0.1
    variance: 0.1
    variance: 0.2
    variance: 0.2
    step: 16
    offset: 2.5
  }
}
layer {
  name: "rescombined_6_EltwisePROD_relu_inter256_mbox_locnew_inter"
  type: "Convolution"
  bottom: "rescombined_6_EltwisePROD_relu_inter256"
  top: "rescombined_6_EltwisePROD_relu_inter256_mbox_locnew_inter"
  param {
    lr_mult: 1
    decay_mult: 1
  }
  convolution_param {
    num_output: 512
    bias_term: false
    pad: 1
    kernel_size: 3
    stride: 1
    weight_filler {
      type: "gaussian"
      std: 0.01
    }
  }
}
layer {
  name: "rescombined_6_EltwisePROD_relu_inter256_mbox_locnew_inter_bn"
  type: "BatchNorm"
  bottom: "rescombined_6_EltwisePROD_relu_inter256_mbox_locnew_inter"
  top: "rescombined_6_EltwisePROD_relu_inter256_mbox_locnew_inter"
  param {
    lr_mult: 0
    decay_mult: 0
  }
  param {
    lr_mult: 0
    decay_mult: 0
  }
  param {
    lr_mult: 0
    decay_mult: 0
  }
  batch_norm_param {
    moving_average_fraction: 0.999
    eps: 0.001
  }
}
layer {
  name: "rescombined_6_EltwisePROD_relu_inter256_mbox_locnew_inter_scale"
  type: "Scale"
  bottom: "rescombined_6_EltwisePROD_relu_inter256_mbox_locnew_inter"
  top: "rescombined_6_EltwisePROD_relu_inter256_mbox_locnew_inter"
  param {
    lr_mult: 1
    decay_mult: 0
  }
  param {
    lr_mult: 1
    decay_mult: 0
  }
  scale_param {
    filler {
      type: "constant"
      value: 1.0
    }
    bias_term: true
    bias_filler {
      type: "constant"
      value: 0.0
    }
  }
}
layer {
  name: "rescombined_6_EltwisePROD_relu_inter256_mbox_locnew_inter_relu"
  type: "ReLU"
  bottom: "rescombined_6_EltwisePROD_relu_inter256_mbox_locnew_inter"
  top: "rescombined_6_EltwisePROD_relu_inter256_mbox_locnew_inter"
}
layer {
  name: "rescombined_6_EltwisePROD_relu_inter256_mbox_locnew"
  type: "Convolution"
  bottom: "rescombined_6_EltwisePROD_relu_inter256_mbox_locnew_inter"
  top: "rescombined_6_EltwisePROD_relu_inter256_mbox_locnew"
  param {
    lr_mult: 1
    decay_mult: 1
  }
  param {
    lr_mult: 2
    decay_mult: 0
  }
  convolution_param {
    num_output: 32
    pad: 1
    kernel_size: 3
    stride: 1
    weight_filler {
      type: "xavier"
    }
    bias_filler {
      type: "constant"
      value: 0
    }
  }
}
layer {
  name: "rescombined_6_EltwisePROD_relu_inter256_mbox_confnew_inter"
  type: "Convolution"
  bottom: "rescombined_6_EltwisePROD_relu_inter256"
  top: "rescombined_6_EltwisePROD_relu_inter256_mbox_confnew_inter"
  param {
    lr_mult: 1
    decay_mult: 1
  }
  convolution_param {
    num_output: 512
    bias_term: false
    pad: 1
    kernel_size: 3
    stride: 1
    weight_filler {
      type: "gaussian"
      std: 0.01
    }
  }
}
layer {
  name: "rescombined_6_EltwisePROD_relu_inter256_mbox_confnew_inter_bn"
  type: "BatchNorm"
  bottom: "rescombined_6_EltwisePROD_relu_inter256_mbox_confnew_inter"
  top: "rescombined_6_EltwisePROD_relu_inter256_mbox_confnew_inter"
  param {
    lr_mult: 0
    decay_mult: 0
  }
  param {
    lr_mult: 0
    decay_mult: 0
  }
  param {
    lr_mult: 0
    decay_mult: 0
  }
  batch_norm_param {
    moving_average_fraction: 0.999
    eps: 0.001
  }
}
layer {
  name: "rescombined_6_EltwisePROD_relu_inter256_mbox_confnew_inter_scale"
  type: "Scale"
  bottom: "rescombined_6_EltwisePROD_relu_inter256_mbox_confnew_inter"
  top: "rescombined_6_EltwisePROD_relu_inter256_mbox_confnew_inter"
  param {
    lr_mult: 1
    decay_mult: 0
  }
  param {
    lr_mult: 1
    decay_mult: 0
  }
  scale_param {
    filler {
      type: "constant"
      value: 1.0
    }
    bias_term: true
    bias_filler {
      type: "constant"
      value: 0.0
    }
  }
}
layer {
  name: "rescombined_6_EltwisePROD_relu_inter256_mbox_confnew_inter_relu"
  type: "ReLU"
  bottom: "rescombined_6_EltwisePROD_relu_inter256_mbox_confnew_inter"
  top: "rescombined_6_EltwisePROD_relu_inter256_mbox_confnew_inter"
}
layer {
  name: "rescombined_6_EltwisePROD_relu_inter256_mbox_confnew"
  type: "Convolution"
  bottom: "rescombined_6_EltwisePROD_relu_inter256_mbox_confnew_inter"
  top: "rescombined_6_EltwisePROD_relu_inter256_mbox_confnew"
  param {
    lr_mult: 1
    decay_mult: 1
  }
  param {
    lr_mult: 2
    decay_mult: 0
  }
  convolution_param {
    num_output: 648
    pad: 1
    kernel_size: 3
    stride: 1
    weight_filler {
      type: "xavier"
    }
    bias_filler {
      type: "constant"
      value: 0
    }
  }
}
layer {
  name: "rescombined_6_EltwisePROD_relu_inter256_mbox_priorbox"
  type: "PriorBox"
  bottom: "rescombined_6_EltwisePROD_relu_inter256"
  bottom: "data"
  top: "rescombined_6_EltwisePROD_relu_inter256_mbox_priorbox"
  prior_box_param {
    min_size: 138.51
    max_size: 225.72
    aspect_ratio: 1.6
    aspect_ratio: 2.0
    aspect_ratio: 3.0
    flip: true
    clip: false
    variance: 0.1
    variance: 0.1
    variance: 0.2
    variance: 0.2
    step: 32
    offset: 10.5
  }
}
layer {
  name: "rescombined_7_EltwisePROD_relu_inter256_mbox_locnew_inter"
  type: "Convolution"
  bottom: "rescombined_7_EltwisePROD_relu_inter256"
  top: "rescombined_7_EltwisePROD_relu_inter256_mbox_locnew_inter"
  param {
    lr_mult: 1
    decay_mult: 1
  }
  convolution_param {
    num_output: 512
    bias_term: false
    pad: 1
    kernel_size: 3
    stride: 1
    weight_filler {
      type: "gaussian"
      std: 0.01
    }
  }
}
layer {
  name: "rescombined_7_EltwisePROD_relu_inter256_mbox_locnew_inter_bn"
  type: "BatchNorm"
  bottom: "rescombined_7_EltwisePROD_relu_inter256_mbox_locnew_inter"
  top: "rescombined_7_EltwisePROD_relu_inter256_mbox_locnew_inter"
  param {
    lr_mult: 0
    decay_mult: 0
  }
  param {
    lr_mult: 0
    decay_mult: 0
  }
  param {
    lr_mult: 0
    decay_mult: 0
  }
  batch_norm_param {
    moving_average_fraction: 0.999
    eps: 0.001
  }
}
layer {
  name: "rescombined_7_EltwisePROD_relu_inter256_mbox_locnew_inter_scale"
  type: "Scale"
  bottom: "rescombined_7_EltwisePROD_relu_inter256_mbox_locnew_inter"
  top: "rescombined_7_EltwisePROD_relu_inter256_mbox_locnew_inter"
  param {
    lr_mult: 1
    decay_mult: 0
  }
  param {
    lr_mult: 1
    decay_mult: 0
  }
  scale_param {
    filler {
      type: "constant"
      value: 1.0
    }
    bias_term: true
    bias_filler {
      type: "constant"
      value: 0.0
    }
  }
}
layer {
  name: "rescombined_7_EltwisePROD_relu_inter256_mbox_locnew_inter_relu"
  type: "ReLU"
  bottom: "rescombined_7_EltwisePROD_relu_inter256_mbox_locnew_inter"
  top: "rescombined_7_EltwisePROD_relu_inter256_mbox_locnew_inter"
}
layer {
  name: "rescombined_7_EltwisePROD_relu_inter256_mbox_locnew"
  type: "Convolution"
  bottom: "rescombined_7_EltwisePROD_relu_inter256_mbox_locnew_inter"
  top: "rescombined_7_EltwisePROD_relu_inter256_mbox_locnew"
  param {
    lr_mult: 1
    decay_mult: 1
  }
  param {
    lr_mult: 2
    decay_mult: 0
  }
  convolution_param {
    num_output: 32
    pad: 1
    kernel_size: 3
    stride: 1
    weight_filler {
      type: "xavier"
    }
    bias_filler {
      type: "constant"
      value: 0
    }
  }
}
layer {
  name: "rescombined_7_EltwisePROD_relu_inter256_mbox_confnew_inter"
  type: "Convolution"
  bottom: "rescombined_7_EltwisePROD_relu_inter256"
  top: "rescombined_7_EltwisePROD_relu_inter256_mbox_confnew_inter"
  param {
    lr_mult: 1
    decay_mult: 1
  }
  convolution_param {
    num_output: 512
    bias_term: false
    pad: 1
    kernel_size: 3
    stride: 1
    weight_filler {
      type: "gaussian"
      std: 0.01
    }
  }
}
layer {
  name: "rescombined_7_EltwisePROD_relu_inter256_mbox_confnew_inter_bn"
  type: "BatchNorm"
  bottom: "rescombined_7_EltwisePROD_relu_inter256_mbox_confnew_inter"
  top: "rescombined_7_EltwisePROD_relu_inter256_mbox_confnew_inter"
  param {
    lr_mult: 0
    decay_mult: 0
  }
  param {
    lr_mult: 0
    decay_mult: 0
  }
  param {
    lr_mult: 0
    decay_mult: 0
  }
  batch_norm_param {
    moving_average_fraction: 0.999
    eps: 0.001
  }
}
layer {
  name: "rescombined_7_EltwisePROD_relu_inter256_mbox_confnew_inter_scale"
  type: "Scale"
  bottom: "rescombined_7_EltwisePROD_relu_inter256_mbox_confnew_inter"
  top: "rescombined_7_EltwisePROD_relu_inter256_mbox_confnew_inter"
  param {
    lr_mult: 1
    decay_mult: 0
  }
  param {
    lr_mult: 1
    decay_mult: 0
  }
  scale_param {
    filler {
      type: "constant"
      value: 1.0
    }
    bias_term: true
    bias_filler {
      type: "constant"
      value: 0.0
    }
  }
}
layer {
  name: "rescombined_7_EltwisePROD_relu_inter256_mbox_confnew_inter_relu"
  type: "ReLU"
  bottom: "rescombined_7_EltwisePROD_relu_inter256_mbox_confnew_inter"
  top: "rescombined_7_EltwisePROD_relu_inter256_mbox_confnew_inter"
}
layer {
  name: "rescombined_7_EltwisePROD_relu_inter256_mbox_confnew"
  type: "Convolution"
  bottom: "rescombined_7_EltwisePROD_relu_inter256_mbox_confnew_inter"
  top: "rescombined_7_EltwisePROD_relu_inter256_mbox_confnew"
  param {
    lr_mult: 1
    decay_mult: 1
  }
  param {
    lr_mult: 2
    decay_mult: 0
  }
  convolution_param {
    num_output: 648
    pad: 1
    kernel_size: 3
    stride: 1
    weight_filler {
      type: "xavier"
    }
    bias_filler {
      type: "constant"
      value: 0
    }
  }
}
layer {
  name: "rescombined_7_EltwisePROD_relu_inter256_mbox_priorbox"
  type: "PriorBox"
  bottom: "rescombined_7_EltwisePROD_relu_inter256"
  bottom: "data"
  top: "rescombined_7_EltwisePROD_relu_inter256_mbox_priorbox"
  prior_box_param {
    min_size: 225.72
    max_size: 312.93
    aspect_ratio: 1.6
    aspect_ratio: 2.0
    aspect_ratio: 3.0
    flip: true
    clip: false
    variance: 0.1
    variance: 0.1
    variance: 0.2
    variance: 0.2
    step: 64
    offset: 26.5
  }
}
layer {
  name: "rescombined_8_EltwisePROD_relu_inter256_mbox_locnew_inter"
  type: "Convolution"
  bottom: "rescombined_8_EltwisePROD_relu_inter256"
  top: "rescombined_8_EltwisePROD_relu_inter256_mbox_locnew_inter"
  param {
    lr_mult: 1
    decay_mult: 1
  }
  convolution_param {
    num_output: 512
    bias_term: false
    pad: 1
    kernel_size: 3
    stride: 1
    weight_filler {
      type: "gaussian"
      std: 0.01
    }
  }
}
layer {
  name: "rescombined_8_EltwisePROD_relu_inter256_mbox_locnew_inter_bn"
  type: "BatchNorm"
  bottom: "rescombined_8_EltwisePROD_relu_inter256_mbox_locnew_inter"
  top: "rescombined_8_EltwisePROD_relu_inter256_mbox_locnew_inter"
  param {
    lr_mult: 0
    decay_mult: 0
  }
  param {
    lr_mult: 0
    decay_mult: 0
  }
  param {
    lr_mult: 0
    decay_mult: 0
  }
  batch_norm_param {
    moving_average_fraction: 0.999
    eps: 0.001
  }
}
layer {
  name: "rescombined_8_EltwisePROD_relu_inter256_mbox_locnew_inter_scale"
  type: "Scale"
  bottom: "rescombined_8_EltwisePROD_relu_inter256_mbox_locnew_inter"
  top: "rescombined_8_EltwisePROD_relu_inter256_mbox_locnew_inter"
  param {
    lr_mult: 1
    decay_mult: 0
  }
  param {
    lr_mult: 1
    decay_mult: 0
  }
  scale_param {
    filler {
      type: "constant"
      value: 1.0
    }
    bias_term: true
    bias_filler {
      type: "constant"
      value: 0.0
    }
  }
}
layer {
  name: "rescombined_8_EltwisePROD_relu_inter256_mbox_locnew_inter_relu"
  type: "ReLU"
  bottom: "rescombined_8_EltwisePROD_relu_inter256_mbox_locnew_inter"
  top: "rescombined_8_EltwisePROD_relu_inter256_mbox_locnew_inter"
}
layer {
  name: "rescombined_8_EltwisePROD_relu_inter256_mbox_locnew"
  type: "Convolution"
  bottom: "rescombined_8_EltwisePROD_relu_inter256_mbox_locnew_inter"
  top: "rescombined_8_EltwisePROD_relu_inter256_mbox_locnew"
  param {
    lr_mult: 1
    decay_mult: 1
  }
  param {
    lr_mult: 2
    decay_mult: 0
  }
  convolution_param {
    num_output: 32
    pad: 1
    kernel_size: 3
    stride: 1
    weight_filler {
      type: "xavier"
    }
    bias_filler {
      type: "constant"
      value: 0
    }
  }
}
layer {
  name: "rescombined_8_EltwisePROD_relu_inter256_mbox_confnew_inter"
  type: "Convolution"
  bottom: "rescombined_8_EltwisePROD_relu_inter256"
  top: "rescombined_8_EltwisePROD_relu_inter256_mbox_confnew_inter"
  param {
    lr_mult: 1
    decay_mult: 1
  }
  convolution_param {
    num_output: 512
    bias_term: false
    pad: 1
    kernel_size: 3
    stride: 1
    weight_filler {
      type: "gaussian"
      std: 0.01
    }
  }
}
layer {
  name: "rescombined_8_EltwisePROD_relu_inter256_mbox_confnew_inter_bn"
  type: "BatchNorm"
  bottom: "rescombined_8_EltwisePROD_relu_inter256_mbox_confnew_inter"
  top: "rescombined_8_EltwisePROD_relu_inter256_mbox_confnew_inter"
  param {
    lr_mult: 0
    decay_mult: 0
  }
  param {
    lr_mult: 0
    decay_mult: 0
  }
  param {
    lr_mult: 0
    decay_mult: 0
  }
  batch_norm_param {
    moving_average_fraction: 0.999
    eps: 0.001
  }
}
layer {
  name: "rescombined_8_EltwisePROD_relu_inter256_mbox_confnew_inter_scale"
  type: "Scale"
  bottom: "rescombined_8_EltwisePROD_relu_inter256_mbox_confnew_inter"
  top: "rescombined_8_EltwisePROD_relu_inter256_mbox_confnew_inter"
  param {
    lr_mult: 1
    decay_mult: 0
  }
  param {
    lr_mult: 1
    decay_mult: 0
  }
  scale_param {
    filler {
      type: "constant"
      value: 1.0
    }
    bias_term: true
    bias_filler {
      type: "constant"
      value: 0.0
    }
  }
}
layer {
  name: "rescombined_8_EltwisePROD_relu_inter256_mbox_confnew_inter_relu"
  type: "ReLU"
  bottom: "rescombined_8_EltwisePROD_relu_inter256_mbox_confnew_inter"
  top: "rescombined_8_EltwisePROD_relu_inter256_mbox_confnew_inter"
}
layer {
  name: "rescombined_8_EltwisePROD_relu_inter256_mbox_confnew"
  type: "Convolution"
  bottom: "rescombined_8_EltwisePROD_relu_inter256_mbox_confnew_inter"
  top: "rescombined_8_EltwisePROD_relu_inter256_mbox_confnew"
  param {
    lr_mult: 1
    decay_mult: 1
  }
  param {
    lr_mult: 2
    decay_mult: 0
  }
  convolution_param {
    num_output: 648
    pad: 1
    kernel_size: 3
    stride: 1
    weight_filler {
      type: "xavier"
    }
    bias_filler {
      type: "constant"
      value: 0
    }
  }
}
layer {
  name: "rescombined_8_EltwisePROD_relu_inter256_mbox_priorbox"
  type: "PriorBox"
  bottom: "rescombined_8_EltwisePROD_relu_inter256"
  bottom: "data"
  top: "rescombined_8_EltwisePROD_relu_inter256_mbox_priorbox"
  prior_box_param {
    min_size: 312.93
    max_size: 400.14
    aspect_ratio: 1.6
    aspect_ratio: 2.0
    aspect_ratio: 3.0
    flip: true
    clip: false
    variance: 0.1
    variance: 0.1
    variance: 0.2
    variance: 0.2
    step: 128
    offset: 58.5
  }
}
layer {
  name: "rescombined_9_EltwisePROD_relu_inter256_mbox_locnew_inter"
  type: "Convolution"
  bottom: "rescombined_9_EltwisePROD_relu_inter256"
  top: "rescombined_9_EltwisePROD_relu_inter256_mbox_locnew_inter"
  param {
    lr_mult: 1
    decay_mult: 1
  }
  convolution_param {
    num_output: 512
    bias_term: false
    pad: 1
    kernel_size: 3
    stride: 1
    weight_filler {
      type: "gaussian"
      std: 0.01
    }
  }
}
layer {
  name: "rescombined_9_EltwisePROD_relu_inter256_mbox_locnew_inter_bn"
  type: "BatchNorm"
  bottom: "rescombined_9_EltwisePROD_relu_inter256_mbox_locnew_inter"
  top: "rescombined_9_EltwisePROD_relu_inter256_mbox_locnew_inter"
  param {
    lr_mult: 0
    decay_mult: 0
  }
  param {
    lr_mult: 0
    decay_mult: 0
  }
  param {
    lr_mult: 0
    decay_mult: 0
  }
  batch_norm_param {
    moving_average_fraction: 0.999
    eps: 0.001
  }
}
layer {
  name: "rescombined_9_EltwisePROD_relu_inter256_mbox_locnew_inter_scale"
  type: "Scale"
  bottom: "rescombined_9_EltwisePROD_relu_inter256_mbox_locnew_inter"
  top: "rescombined_9_EltwisePROD_relu_inter256_mbox_locnew_inter"
  param {
    lr_mult: 1
    decay_mult: 0
  }
  param {
    lr_mult: 1
    decay_mult: 0
  }
  scale_param {
    filler {
      type: "constant"
      value: 1.0
    }
    bias_term: true
    bias_filler {
      type: "constant"
      value: 0.0
    }
  }
}
layer {
  name: "rescombined_9_EltwisePROD_relu_inter256_mbox_locnew_inter_relu"
  type: "ReLU"
  bottom: "rescombined_9_EltwisePROD_relu_inter256_mbox_locnew_inter"
  top: "rescombined_9_EltwisePROD_relu_inter256_mbox_locnew_inter"
}
layer {
  name: "rescombined_9_EltwisePROD_relu_inter256_mbox_locnew"
  type: "Convolution"
  bottom: "rescombined_9_EltwisePROD_relu_inter256_mbox_locnew_inter"
  top: "rescombined_9_EltwisePROD_relu_inter256_mbox_locnew"
  param {
    lr_mult: 1
    decay_mult: 1
  }
  param {
    lr_mult: 2
    decay_mult: 0
  }
  convolution_param {
    num_output: 32
    pad: 1
    kernel_size: 3
    stride: 1
    weight_filler {
      type: "xavier"
    }
    bias_filler {
      type: "constant"
      value: 0
    }
  }
}
layer {
  name: "rescombined_9_EltwisePROD_relu_inter256_mbox_confnew_inter"
  type: "Convolution"
  bottom: "rescombined_9_EltwisePROD_relu_inter256"
  top: "rescombined_9_EltwisePROD_relu_inter256_mbox_confnew_inter"
  param {
    lr_mult: 1
    decay_mult: 1
  }
  convolution_param {
    num_output: 512
    bias_term: false
    pad: 1
    kernel_size: 3
    stride: 1
    weight_filler {
      type: "gaussian"
      std: 0.01
    }
  }
}
layer {
  name: "rescombined_9_EltwisePROD_relu_inter256_mbox_confnew_inter_bn"
  type: "BatchNorm"
  bottom: "rescombined_9_EltwisePROD_relu_inter256_mbox_confnew_inter"
  top: "rescombined_9_EltwisePROD_relu_inter256_mbox_confnew_inter"
  param {
    lr_mult: 0
    decay_mult: 0
  }
  param {
    lr_mult: 0
    decay_mult: 0
  }
  param {
    lr_mult: 0
    decay_mult: 0
  }
  batch_norm_param {
    moving_average_fraction: 0.999
    eps: 0.001
  }
}
layer {
  name: "rescombined_9_EltwisePROD_relu_inter256_mbox_confnew_inter_scale"
  type: "Scale"
  bottom: "rescombined_9_EltwisePROD_relu_inter256_mbox_confnew_inter"
  top: "rescombined_9_EltwisePROD_relu_inter256_mbox_confnew_inter"
  param {
    lr_mult: 1
    decay_mult: 0
  }
  param {
    lr_mult: 1
    decay_mult: 0
  }
  scale_param {
    filler {
      type: "constant"
      value: 1.0
    }
    bias_term: true
    bias_filler {
      type: "constant"
      value: 0.0
    }
  }
}
layer {
  name: "rescombined_9_EltwisePROD_relu_inter256_mbox_confnew_inter_relu"
  type: "ReLU"
  bottom: "rescombined_9_EltwisePROD_relu_inter256_mbox_confnew_inter"
  top: "rescombined_9_EltwisePROD_relu_inter256_mbox_confnew_inter"
}
layer {
  name: "rescombined_9_EltwisePROD_relu_inter256_mbox_confnew"
  type: "Convolution"
  bottom: "rescombined_9_EltwisePROD_relu_inter256_mbox_confnew_inter"
  top: "rescombined_9_EltwisePROD_relu_inter256_mbox_confnew"
  param {
    lr_mult: 1
    decay_mult: 1
  }
  param {
    lr_mult: 2
    decay_mult: 0
  }
  convolution_param {
    num_output: 648
    pad: 1
    kernel_size: 3
    stride: 1
    weight_filler {
      type: "xavier"
    }
    bias_filler {
      type: "constant"
      value: 0
    }
  }
}
layer {
  name: "rescombined_9_EltwisePROD_relu_inter256_mbox_priorbox"
  type: "PriorBox"
  bottom: "rescombined_9_EltwisePROD_relu_inter256"
  bottom: "data"
  top: "rescombined_9_EltwisePROD_relu_inter256_mbox_priorbox"
  prior_box_param {
    min_size: 400.14
    max_size: 487.35
    aspect_ratio: 1.6
    aspect_ratio: 2.0
    aspect_ratio: 3.0
    flip: true
    clip: false
    variance: 0.1
    variance: 0.1
    variance: 0.2
    variance: 0.2
    step: 256
    offset: 122.5
  }
}
layer {
  name: "resres10_relu_inter256_mbox_locnew_inter"
  type: "Convolution"
  bottom: "resres10_relu_inter256"
  top: "resres10_relu_inter256_mbox_locnew_inter"
  param {
    lr_mult: 1
    decay_mult: 1
  }
  convolution_param {
    num_output: 512
    bias_term: false
    pad: 1
    kernel_size: 3
    stride: 1
    weight_filler {
      type: "gaussian"
      std: 0.01
    }
  }
}
layer {
  name: "resres10_relu_inter256_mbox_locnew_inter_bn"
  type: "BatchNorm"
  bottom: "resres10_relu_inter256_mbox_locnew_inter"
  top: "resres10_relu_inter256_mbox_locnew_inter"
  param {
    lr_mult: 0
    decay_mult: 0
  }
  param {
    lr_mult: 0
    decay_mult: 0
  }
  param {
    lr_mult: 0
    decay_mult: 0
  }
  batch_norm_param {
    moving_average_fraction: 0.999
    eps: 0.001
  }
}
layer {
  name: "resres10_relu_inter256_mbox_locnew_inter_scale"
  type: "Scale"
  bottom: "resres10_relu_inter256_mbox_locnew_inter"
  top: "resres10_relu_inter256_mbox_locnew_inter"
  param {
    lr_mult: 1
    decay_mult: 0
  }
  param {
    lr_mult: 1
    decay_mult: 0
  }
  scale_param {
    filler {
      type: "constant"
      value: 1.0
    }
    bias_term: true
    bias_filler {
      type: "constant"
      value: 0.0
    }
  }
}
layer {
  name: "resres10_relu_inter256_mbox_locnew_inter_relu"
  type: "ReLU"
  bottom: "resres10_relu_inter256_mbox_locnew_inter"
  top: "resres10_relu_inter256_mbox_locnew_inter"
}
layer {
  name: "resres10_relu_inter256_mbox_locnew"
  type: "Convolution"
  bottom: "resres10_relu_inter256_mbox_locnew_inter"
  top: "resres10_relu_inter256_mbox_locnew"
  param {
    lr_mult: 1
    decay_mult: 1
  }
  param {
    lr_mult: 2
    decay_mult: 0
  }
  convolution_param {
    num_output: 32
    pad: 1
    kernel_size: 3
    stride: 1
    weight_filler {
      type: "xavier"
    }
    bias_filler {
      type: "constant"
      value: 0
    }
  }
}
layer {
  name: "resres10_relu_inter256_mbox_confnew_inter"
  type: "Convolution"
  bottom: "resres10_relu_inter256"
  top: "resres10_relu_inter256_mbox_confnew_inter"
  param {
    lr_mult: 1
    decay_mult: 1
  }
  convolution_param {
    num_output: 512
    bias_term: false
    pad: 1
    kernel_size: 3
    stride: 1
    weight_filler {
      type: "gaussian"
      std: 0.01
    }
  }
}
layer {
  name: "resres10_relu_inter256_mbox_confnew_inter_bn"
  type: "BatchNorm"
  bottom: "resres10_relu_inter256_mbox_confnew_inter"
  top: "resres10_relu_inter256_mbox_confnew_inter"
  param {
    lr_mult: 0
    decay_mult: 0
  }
  param {
    lr_mult: 0
    decay_mult: 0
  }
  param {
    lr_mult: 0
    decay_mult: 0
  }
  batch_norm_param {
    moving_average_fraction: 0.999
    eps: 0.001
  }
}
layer {
  name: "resres10_relu_inter256_mbox_confnew_inter_scale"
  type: "Scale"
  bottom: "resres10_relu_inter256_mbox_confnew_inter"
  top: "resres10_relu_inter256_mbox_confnew_inter"
  param {
    lr_mult: 1
    decay_mult: 0
  }
  param {
    lr_mult: 1
    decay_mult: 0
  }
  scale_param {
    filler {
      type: "constant"
      value: 1.0
    }
    bias_term: true
    bias_filler {
      type: "constant"
      value: 0.0
    }
  }
}
layer {
  name: "resres10_relu_inter256_mbox_confnew_inter_relu"
  type: "ReLU"
  bottom: "resres10_relu_inter256_mbox_confnew_inter"
  top: "resres10_relu_inter256_mbox_confnew_inter"
}
layer {
  name: "resres10_relu_inter256_mbox_confnew"
  type: "Convolution"
  bottom: "resres10_relu_inter256_mbox_confnew_inter"
  top: "resres10_relu_inter256_mbox_confnew"
  param {
    lr_mult: 1
    decay_mult: 1
  }
  param {
    lr_mult: 2
    decay_mult: 0
  }
  convolution_param {
    num_output: 648
    pad: 1
    kernel_size: 3
    stride: 1
    weight_filler {
      type: "xavier"
    }
    bias_filler {
      type: "constant"
      value: 0
    }
  }
}
layer {
  name: "resres10_relu_inter256_mbox_priorbox"
  type: "PriorBox"
  bottom: "resres10_relu_inter256"
  bottom: "data"
  top: "resres10_relu_inter256_mbox_priorbox"
  prior_box_param {
    min_size: 487.35
    max_size: 574.56
    aspect_ratio: 1.6
    aspect_ratio: 2.0
    aspect_ratio: 3.0
    flip: true
    clip: false
    variance: 0.1
    variance: 0.1
    variance: 0.2
    variance: 0.2
    step: 513
    offset: 256.5
  }
}
layer {
  name: "rescombined_3_EltwisePROD_relu_inter256_mbox_locnew_perm"
  type: "Permute"
  bottom: "rescombined_3_EltwisePROD_relu_inter256_mbox_locnew"
  top: "rescombined_3_EltwisePROD_relu_inter256_mbox_locnew_perm"
  permute_param {
    order: 0
    order: 2
    order: 3
    order: 1
  }
}
layer {
  name: "rescombined_3_EltwisePROD_relu_inter256_mbox_locnew_flat"
  type: "Flatten"
  bottom: "rescombined_3_EltwisePROD_relu_inter256_mbox_locnew_perm"
  top: "rescombined_3_EltwisePROD_relu_inter256_mbox_locnew_flat"
  flatten_param {
    axis: 1
  }
}
layer {
  name: "rescombined_5_EltwisePROD_relu_inter256_mbox_locnew_perm"
  type: "Permute"
  bottom: "rescombined_5_EltwisePROD_relu_inter256_mbox_locnew"
  top: "rescombined_5_EltwisePROD_relu_inter256_mbox_locnew_perm"
  permute_param {
    order: 0
    order: 2
    order: 3
    order: 1
  }
}
layer {
  name: "rescombined_5_EltwisePROD_relu_inter256_mbox_locnew_flat"
  type: "Flatten"
  bottom: "rescombined_5_EltwisePROD_relu_inter256_mbox_locnew_perm"
  top: "rescombined_5_EltwisePROD_relu_inter256_mbox_locnew_flat"
  flatten_param {
    axis: 1
  }
}
layer {
  name: "rescombined_6_EltwisePROD_relu_inter256_mbox_locnew_perm"
  type: "Permute"
  bottom: "rescombined_6_EltwisePROD_relu_inter256_mbox_locnew"
  top: "rescombined_6_EltwisePROD_relu_inter256_mbox_locnew_perm"
  permute_param {
    order: 0
    order: 2
    order: 3
    order: 1
  }
}
layer {
  name: "rescombined_6_EltwisePROD_relu_inter256_mbox_locnew_flat"
  type: "Flatten"
  bottom: "rescombined_6_EltwisePROD_relu_inter256_mbox_locnew_perm"
  top: "rescombined_6_EltwisePROD_relu_inter256_mbox_locnew_flat"
  flatten_param {
    axis: 1
  }
}
layer {
  name: "rescombined_7_EltwisePROD_relu_inter256_mbox_locnew_perm"
  type: "Permute"
  bottom: "rescombined_7_EltwisePROD_relu_inter256_mbox_locnew"
  top: "rescombined_7_EltwisePROD_relu_inter256_mbox_locnew_perm"
  permute_param {
    order: 0
    order: 2
    order: 3
    order: 1
  }
}
layer {
  name: "rescombined_7_EltwisePROD_relu_inter256_mbox_locnew_flat"
  type: "Flatten"
  bottom: "rescombined_7_EltwisePROD_relu_inter256_mbox_locnew_perm"
  top: "rescombined_7_EltwisePROD_relu_inter256_mbox_locnew_flat"
  flatten_param {
    axis: 1
  }
}
layer {
  name: "rescombined_8_EltwisePROD_relu_inter256_mbox_locnew_perm"
  type: "Permute"
  bottom: "rescombined_8_EltwisePROD_relu_inter256_mbox_locnew"
  top: "rescombined_8_EltwisePROD_relu_inter256_mbox_locnew_perm"
  permute_param {
    order: 0
    order: 2
    order: 3
    order: 1
  }
}
layer {
  name: "rescombined_8_EltwisePROD_relu_inter256_mbox_locnew_flat"
  type: "Flatten"
  bottom: "rescombined_8_EltwisePROD_relu_inter256_mbox_locnew_perm"
  top: "rescombined_8_EltwisePROD_relu_inter256_mbox_locnew_flat"
  flatten_param {
    axis: 1
  }
}
layer {
  name: "rescombined_9_EltwisePROD_relu_inter256_mbox_locnew_perm"
  type: "Permute"
  bottom: "rescombined_9_EltwisePROD_relu_inter256_mbox_locnew"
  top: "rescombined_9_EltwisePROD_relu_inter256_mbox_locnew_perm"
  permute_param {
    order: 0
    order: 2
    order: 3
    order: 1
  }
}
layer {
  name: "rescombined_9_EltwisePROD_relu_inter256_mbox_locnew_flat"
  type: "Flatten"
  bottom: "rescombined_9_EltwisePROD_relu_inter256_mbox_locnew_perm"
  top: "rescombined_9_EltwisePROD_relu_inter256_mbox_locnew_flat"
  flatten_param {
    axis: 1
  }
}
layer {
  name: "resres10_relu_inter256_mbox_locnew_perm"
  type: "Permute"
  bottom: "resres10_relu_inter256_mbox_locnew"
  top: "resres10_relu_inter256_mbox_locnew_perm"
  permute_param {
    order: 0
    order: 2
    order: 3
    order: 1
  }
}
layer {
  name: "resres10_relu_inter256_mbox_locnew_flat"
  type: "Flatten"
  bottom: "resres10_relu_inter256_mbox_locnew_perm"
  top: "resres10_relu_inter256_mbox_locnew_flat"
  flatten_param {
    axis: 1
  }
}
layer {
  name: "mbox_loc"
  type: "Concat"
  bottom: "rescombined_3_EltwisePROD_relu_inter256_mbox_locnew_flat"
  bottom: "rescombined_5_EltwisePROD_relu_inter256_mbox_locnew_flat"
  bottom: "rescombined_6_EltwisePROD_relu_inter256_mbox_locnew_flat"
  bottom: "rescombined_7_EltwisePROD_relu_inter256_mbox_locnew_flat"
  bottom: "rescombined_8_EltwisePROD_relu_inter256_mbox_locnew_flat"
  bottom: "rescombined_9_EltwisePROD_relu_inter256_mbox_locnew_flat"
  bottom: "resres10_relu_inter256_mbox_locnew_flat"
  top: "mbox_loc"
  concat_param {
    axis: 1
  }
}
layer {
  name: "rescombined_3_EltwisePROD_relu_inter256_mbox_confnew_perm"
  type: "Permute"
  bottom: "rescombined_3_EltwisePROD_relu_inter256_mbox_confnew"
  top: "rescombined_3_EltwisePROD_relu_inter256_mbox_confnew_perm"
  permute_param {
    order: 0
    order: 2
    order: 3
    order: 1
  }
}
layer {
  name: "rescombined_3_EltwisePROD_relu_inter256_mbox_confnew_flat"
  type: "Flatten"
  bottom: "rescombined_3_EltwisePROD_relu_inter256_mbox_confnew_perm"
  top: "rescombined_3_EltwisePROD_relu_inter256_mbox_confnew_flat"
  flatten_param {
    axis: 1
  }
}
layer {
  name: "rescombined_5_EltwisePROD_relu_inter256_mbox_confnew_perm"
  type: "Permute"
  bottom: "rescombined_5_EltwisePROD_relu_inter256_mbox_confnew"
  top: "rescombined_5_EltwisePROD_relu_inter256_mbox_confnew_perm"
  permute_param {
    order: 0
    order: 2
    order: 3
    order: 1
  }
}
layer {
  name: "rescombined_5_EltwisePROD_relu_inter256_mbox_confnew_flat"
  type: "Flatten"
  bottom: "rescombined_5_EltwisePROD_relu_inter256_mbox_confnew_perm"
  top: "rescombined_5_EltwisePROD_relu_inter256_mbox_confnew_flat"
  flatten_param {
    axis: 1
  }
}
layer {
  name: "rescombined_6_EltwisePROD_relu_inter256_mbox_confnew_perm"
  type: "Permute"
  bottom: "rescombined_6_EltwisePROD_relu_inter256_mbox_confnew"
  top: "rescombined_6_EltwisePROD_relu_inter256_mbox_confnew_perm"
  permute_param {
    order: 0
    order: 2
    order: 3
    order: 1
  }
}
layer {
  name: "rescombined_6_EltwisePROD_relu_inter256_mbox_confnew_flat"
  type: "Flatten"
  bottom: "rescombined_6_EltwisePROD_relu_inter256_mbox_confnew_perm"
  top: "rescombined_6_EltwisePROD_relu_inter256_mbox_confnew_flat"
  flatten_param {
    axis: 1
  }
}
layer {
  name: "rescombined_7_EltwisePROD_relu_inter256_mbox_confnew_perm"
  type: "Permute"
  bottom: "rescombined_7_EltwisePROD_relu_inter256_mbox_confnew"
  top: "rescombined_7_EltwisePROD_relu_inter256_mbox_confnew_perm"
  permute_param {
    order: 0
    order: 2
    order: 3
    order: 1
  }
}
layer {
  name: "rescombined_7_EltwisePROD_relu_inter256_mbox_confnew_flat"
  type: "Flatten"
  bottom: "rescombined_7_EltwisePROD_relu_inter256_mbox_confnew_perm"
  top: "rescombined_7_EltwisePROD_relu_inter256_mbox_confnew_flat"
  flatten_param {
    axis: 1
  }
}
layer {
  name: "rescombined_8_EltwisePROD_relu_inter256_mbox_confnew_perm"
  type: "Permute"
  bottom: "rescombined_8_EltwisePROD_relu_inter256_mbox_confnew"
  top: "rescombined_8_EltwisePROD_relu_inter256_mbox_confnew_perm"
  permute_param {
    order: 0
    order: 2
    order: 3
    order: 1
  }
}
layer {
  name: "rescombined_8_EltwisePROD_relu_inter256_mbox_confnew_flat"
  type: "Flatten"
  bottom: "rescombined_8_EltwisePROD_relu_inter256_mbox_confnew_perm"
  top: "rescombined_8_EltwisePROD_relu_inter256_mbox_confnew_flat"
  flatten_param {
    axis: 1
  }
}
layer {
  name: "rescombined_9_EltwisePROD_relu_inter256_mbox_confnew_perm"
  type: "Permute"
  bottom: "rescombined_9_EltwisePROD_relu_inter256_mbox_confnew"
  top: "rescombined_9_EltwisePROD_relu_inter256_mbox_confnew_perm"
  permute_param {
    order: 0
    order: 2
    order: 3
    order: 1
  }
}
layer {
  name: "rescombined_9_EltwisePROD_relu_inter256_mbox_confnew_flat"
  type: "Flatten"
  bottom: "rescombined_9_EltwisePROD_relu_inter256_mbox_confnew_perm"
  top: "rescombined_9_EltwisePROD_relu_inter256_mbox_confnew_flat"
  flatten_param {
    axis: 1
  }
}
layer {
  name: "resres10_relu_inter256_mbox_confnew_perm"
  type: "Permute"
  bottom: "resres10_relu_inter256_mbox_confnew"
  top: "resres10_relu_inter256_mbox_confnew_perm"
  permute_param {
    order: 0
    order: 2
    order: 3
    order: 1
  }
}
layer {
  name: "resres10_relu_inter256_mbox_confnew_flat"
  type: "Flatten"
  bottom: "resres10_relu_inter256_mbox_confnew_perm"
  top: "resres10_relu_inter256_mbox_confnew_flat"
  flatten_param {
    axis: 1
  }
}
layer {
  name: "mbox_conf"
  type: "Concat"
  bottom: "rescombined_3_EltwisePROD_relu_inter256_mbox_confnew_flat"
  bottom: "rescombined_5_EltwisePROD_relu_inter256_mbox_confnew_flat"
  bottom: "rescombined_6_EltwisePROD_relu_inter256_mbox_confnew_flat"
  bottom: "rescombined_7_EltwisePROD_relu_inter256_mbox_confnew_flat"
  bottom: "rescombined_8_EltwisePROD_relu_inter256_mbox_confnew_flat"
  bottom: "rescombined_9_EltwisePROD_relu_inter256_mbox_confnew_flat"
  bottom: "resres10_relu_inter256_mbox_confnew_flat"
  top: "mbox_conf"
  concat_param {
    axis: 1
  }
}
layer {
  name: "mbox_priorbox"
  type: "Concat"
  bottom: "rescombined_3_EltwisePROD_relu_inter256_mbox_priorbox"
  bottom: "rescombined_5_EltwisePROD_relu_inter256_mbox_priorbox"
  bottom: "rescombined_6_EltwisePROD_relu_inter256_mbox_priorbox"
  bottom: "rescombined_7_EltwisePROD_relu_inter256_mbox_priorbox"
  bottom: "rescombined_8_EltwisePROD_relu_inter256_mbox_priorbox"
  bottom: "rescombined_9_EltwisePROD_relu_inter256_mbox_priorbox"
  bottom: "resres10_relu_inter256_mbox_priorbox"
  top: "mbox_priorbox"
  concat_param {
    axis: 2
  }
}
layer {
  name: "mbox_loss"
  type: "MultiBoxLoss"
  bottom: "mbox_loc"
  bottom: "mbox_conf"
  bottom: "mbox_priorbox"
  bottom: "label"
  top: "mbox_loss"
  include {
    phase: TRAIN
  }
  propagate_down: true
  propagate_down: true
  propagate_down: false
  propagate_down: false
  loss_param {
    normalization: VALID
  }
  multibox_loss_param {
    loc_loss_type: SMOOTH_L1
    conf_loss_type: SOFTMAX
    loc_weight: 1.0
    num_classes: 81
    share_location: true
    match_type: PER_PREDICTION
    overlap_threshold: 0.5
    use_prior_for_matching: true
    background_label_id: 0
    use_difficult_gt: false
    neg_pos_ratio: 3.0
    neg_overlap: 0.5
    code_type: CENTER_SIZE
    ignore_cross_boundary_bbox: false
    mining_type: MAX_NEGATIVE
  }
}

